checkpoint/fk_model_dg4f_right.pth (torch, 599874 bytes, 80 tensors)

nets.0.0.weight f4 [128, 4]
000000 8f 65 da 3e 1b 69 08 3d 84 d1 8b be 2d 0a 6d be
       0.42655608 0.03330336 -0.27308285 -0.23148413
000010 35 7f 0b 3e 2c 5d ca 3e 78 f2 ce 3e 92 e3 a3 3e
       0.13622744 0.3952421 0.40419364 0.3200956
000020 74 77 20 be a3 0c 5f be 79 39 ac be e6 c6 e7 bd
       -0.15670568 -0.21782164 -0.33637598 -0.11317234
000030 0c c2 8a be 25 6f 5b be b7 44 bd be 61 ee 82 be
       -0.2710117 -0.21429117 -0.36966488 -0.25572494
000040 e4 ef 17 be ba a7 11 3e 10 dc f9 3e be 74 c9 3e
       -0.14837605 0.14224139 0.48800707 0.3934688
000050 91 86 4e be 92 17 7d 3c 62 0c 83 3c 30 5d 99 be
       -0.2016852 0.015447514 0.015997116 -0.2995391
000060 5a ea 27 3e 41 8f 19 3f b6 cc 68 3d 35 40 95 3d
       0.16397992 0.59984213 0.056835853 0.07287637
000070 ec f1 2d be a1 88 ac be fc a8 49 be 12 82 10 be
       -0.16986817 -0.3369799 -0.19693369 -0.14112118
000080 e1 50 3d bd a5 4d 1b 3f 54 93 33 be be a2 67 be
       -0.04621971 0.6066535 -0.1753667 -0.22620675
000090 f0 95 a4 be 20 68 7d be b3 84 5b be 1f 09 23 be
       -0.32145643 -0.24746752 -0.2143734 -0.15921448
0000a0 c8 7d 1e 3e b6 b1 04 3f 2e 49 cc 3d 59 94 ce bd
       0.15477669 0.51833665 0.099748954 -0.10086889
0000b0 3c 4b 5b 3e 0c c5 d4 3e 80 46 d2 3e 4f 33 9b 3e
       0.21415418 0.41556585 0.41069412 0.30312583
0000c0 3f 13 06 3e 04 24 f3 3e d5 43 e0 3d 30 a9 67 bd
       0.1309328 0.47488415 0.10950438 -0.056557834
0000d0 05 9c bd 3e cc b3 07 3f 8f 94 3e 3e 76 e2 af bd
       0.37033096 0.53008723 0.18611358 -0.08588116
0000e0 44 1e 30 bc 1e cf 01 3f 15 49 61 3e 05 06 af 3c
       -0.010749403 0.5070666 0.22000535 0.021365175
0000f0 1e 65 27 be ba 9d 9e be 5c ea ab 3e 28 2e 43 bd
       -0.16347167 -0.3097971 0.3357724 -0.04765144
000100 cc 5e 64 bd 57 b8 bf 3d ee d7 da 3e 96 39 b2 3e
       -0.055754468 0.09361332 0.42742866 0.3480956
000110 94 e2 03 3d 19 59 f2 3e e0 cf f5 be 2f 34 d0 3e
       0.032198504 0.473336 -0.4801016 0.40664813
000120 50 bc 05 be 49 d0 3d bf 3f 32 ab bb a3 48 aa 3c
       -0.13060117 -0.7414594 -0.0052244957 0.020786589
000130 79 68 cb 3e 18 a3 8a 3e 1a d2 1b 3e 34 41 66 3c
       0.39728144 0.27077556 0.15216866 0.014053632
000140 b5 49 e3 3e e8 4d 65 3e 9d 22 17 be 76 ab 8d 3e
       0.44392172 0.22393 -0.14759298 0.27669877
000150 54 db 1f be 2a a7 b1 be 9f 49 92 3e 1c 7c 13 3e
       -0.15611011 -0.3469785 0.28571793 0.14402813
000160 55 46 a9 be d4 db ed be 3f e5 41 3d 08 d4 2d bd
       -0.33061472 -0.46456778 0.047337767 -0.042438537
000170 f7 76 c5 3e a8 3d 18 be 8c 65 6b bd db 55 b4 3e
       0.38567325 -0.1486727 -0.05746989 0.35221753
000180 1c 95 cd 3e 9c dd 05 3f 49 c9 f6 bd 3b 60 22 be
       0.40152824 0.52291274 -0.12050111 -0.15857022
000190 bf 65 3d be 71 79 09 bf 9d 43 94 be f6 09 25 be
       -0.18495844 -0.5370093 -0.28957835 -0.16117081
0001a0 1d 21 b8 3e a4 54 a8 3e b5 c6 8f bd 74 93 3c be
       0.35962763 0.32877076 -0.07020322 -0.18415624
0001b0 97 83 27 be 6e 17 95 3e d7 08 ef 3e 06 ac 7b be
       -0.16358791 0.29119438 0.46686432 -0.2457734
0001c0 9b 52 e3 3d 97 a7 4b 3e 42 f9 ab be 97 9d 4a be
       0.1109974 0.19888149 -0.33588606 -0.19786678
0001d0 bf 60 c8 3d c1 75 98 bc e8 1e 0f bf 6e 06 ef be
       0.09784078 -0.018610837 -0.55906534 -0.46684593
0001e0 74 d9 15 3f 71 9a 02 bf 2e ef 98 3e 4f 26 a3 be
       0.5853493 -0.5101691 0.2986998 -0.31865165
0001f0 3f 7d df 3d 1d 17 9a bd d2 82 e9 3e 9d df b1 be
       0.10912561 -0.0752394 0.4560762 -0.34740916
000200 a7 4a a6 be 8b b7 d8 3c 91 03 e9 3e c0 07 6e 3e
       -0.3247883 0.026454708 0.45510533 0.23245144
000210 c2 27 44 3e 99 0e 80 be 67 08 8c be e1 72 52 be
       0.19155791 -0.25011137 -0.2735016 -0.20551635
000220 8e 60 29 3f fa b6 10 3d 19 38 1e bd 13 fd 4e 3e
       0.66162956 0.03533075 -0.038627718 0.20213728
000230 41 8c 98 be 94 a0 85 be 33 de d5 3e 29 60 b0 3c
       -0.29794505 -0.26099074 0.41771087 0.021530228
000240 7c f7 aa 3d e6 24 06 3f 74 e8 1b bd 2c 03 30 bd
       0.08347985 0.5240005 -0.03806348 -0.042971775
000250 da a4 91 3e 07 92 b0 be 95 71 df 3e e4 82 f7 bc
       0.28446084 -0.3448641 0.43641344 -0.03021378
000260 a7 01 e8 bd d3 4b 03 bd b9 ca c6 3e 0a 82 77 3e
       -0.1132844 -0.032054733 0.3882654 0.241707
000270 73 ad ce be 54 56 bd 3e 66 3d d2 3e dd 71 33 3e
       -0.40366706 0.36979926 0.41062468 0.17523904
000280 8e 65 05 3e 01 2c 96 3e cb 45 90 3e 85 01 b1 3d
       0.13027021 0.29330447 0.28178248 0.08642868
000290 df cc 38 3c 00 3e 3e be 1e 4d e3 bd 08 f0 3b be
       0.011279314 -0.18578339 -0.11098693 -0.18353283
0002a0 bc 27 92 3a d5 27 00 3f f2 e6 bd 3e 46 8e 60 3e
       0.0011150758 0.5006078 0.3709026 0.21929273
0002b0 82 5f e7 3e 32 39 0d 3f fe c1 0b bf 6f a0 9f 3d
       0.45190054 0.551654 -0.54592884 0.07794272
0002c0 24 46 86 be 4f f8 21 3f f9 a8 fa 3c d8 3e 92 3c
       -0.26225388 0.63269514 0.03059815 0.017852232
0002d0 c9 04 27 3e f5 cc 8d be 72 93 06 be d8 b3 f9 3a
       0.16310419 -0.27695432 -0.13142183 0.001905079
0002e0 7d 74 2f 3e 4b 51 ed bc 51 1b 9f 3e 6e 77 85 3d
       0.1713428 -0.028969428 0.31075528 0.0651692
0002f0 c1 09 87 3e ee ee d2 3e 54 34 b9 be 67 52 b4 be
       0.2637463 0.41197914 -0.36172736 -0.35219118
000300 5c 05 1d 3e 27 70 c8 3e 52 99 d1 3e 09 d6 7f 3e
       0.15334076 0.39148065 0.40937287 0.24983992
000310 bd e5 04 be 9d 53 08 3f 3f 69 e9 be db b8 96 be
       -0.12978263 0.53252584 -0.4558811 -0.2943791
000320 91 39 78 3e bc ee e2 be 51 d2 ed bd ee bf 12 be
       0.2424071 -0.44322765 -0.1161238 -0.14331028
000330 5c 97 f9 bd 47 df f7 3e 06 3a c2 bc cd c0 51 bc
       -0.12187073 0.48412535 -0.023709308 -0.012802315
000340 5e 9d da be 26 15 8e 3d 5d c9 58 be fe 0b af be
       -0.42698187 0.069376275 -0.21170564 -0.34188837
000350 d4 bf dd 3e b1 04 39 3e 1b 4c d3 3e 32 52 67 3e
       0.43310416 0.18068196 0.41269 0.22589949
000360 6c bd 78 3e 19 93 df 3e 9b 3c 59 be a3 ec f3 3b
       0.24291009 0.43666914 -0.21214525 0.007443981
000370 af cd 3f bc 60 58 5a 3f f9 44 51 be d6 2a 89 3e
       -0.011706754 0.852911 -0.20436467 0.26790494
000380 ba 7a a8 3e e5 1f 71 be f8 d8 88 3e c9 79 99 3e
       0.32906133 -0.23547323 0.26728034 0.29975727
000390 5f 6f b1 3e 19 54 03 3e bc 37 94 be bf a6 35 be
       0.34655282 0.1282505 -0.28948772 -0.1773939
0003a0 85 94 b7 3e 06 b4 35 3e 12 f0 00 bf 39 f3 25 be
       0.358555 0.17744455 -0.5036632 -0.16206063
0003b0 85 56 9a be 9e 56 2b 3f 04 c9 90 3e 97 1a a7 be
       -0.30144134 0.6692904 0.28278363 -0.32637474
0003c0 96 e8 9a be 91 a0 e7 3c 35 03 78 3e ef 85 d4 3c
       -0.30255574 0.028274806 0.24219973 0.02594277
0003d0 f0 62 80 3e 07 57 00 3f c6 a9 44 be ba 4d 35 3c
       0.25075483 0.50132793 -0.19205388 0.011065895
0003e0 9c 3e 98 3e 42 c6 17 bf 63 7f 65 3e c4 90 5c be
       0.29735267 -0.5928689 0.22411875 -0.21539599
0003f0 bc df d6 be fa 55 4e 3e a7 8a b8 3e e6 69 16 3d
       -0.4196757 0.20149985 0.36043283 0.036722086

nets.0.0.bias f4 [128]
000000 5c 3f 81 3e f3 11 2d 3e b4 a7 cb 3e c6 4c 77 be
       0.25243652 0.16901378 0.39776385 -0.2415038
000010 f0 8d 3d 3d 42 f0 c2 3e 14 b7 cb 3e d4 e0 bd be
       0.04627794 0.38073927 0.39788115 -0.37085593
000020 3e b8 99 be 06 20 e5 be 8b e0 43 be 98 4f 3b be
       -0.30023378 -0.44750994 -0.19128625 -0.18292081
000030 75 1e d4 be 31 97 4b be 6e 12 41 be 32 fe 7d 3e
       -0.41429487 -0.19881894 -0.18854687 0.24803999
000040 b3 de c6 3e 81 8f 1f 3f 3e 0f cc bd fa 44 93 be
       0.3884178 0.62328345 -0.09963845 -0.28763562
000050 b3 76 07 3e 06 cc 16 3d 22 48 cb 3e a8 81 7f 3e
       0.13228874 0.036815666 0.3970347 0.24951804
000060 db 55 82 3e 65 aa ae be 3b 5b b4 be a5 d2 e0 3e
       0.25456128 -0.34114376 -0.35225853 0.4391071
000070 d5 bd a7 3e 4c 02 a9 be fa 27 99 be 71 cf e5 3e
       0.32762018 -0.33009565 -0.29913312 0.44884828
000080 50 f0 c1 be 9e e1 c7 be a4 2b be 3d 41 a6 f7 3e
       -0.37878656 -0.3903932 0.092856675 0.4836903
000090 52 33 75 3d 81 2c f3 3e 8b 6d b6 3d ee 66 25 be
       0.059863396 0.4749489 0.089076124 -0.16152546
0000a0 13 57 bc 3e 71 00 42 3e 8b 50 29 be 9e f3 9b be
       0.36785182 0.18945481 -0.16534631 -0.30459303
0000b0 f0 b8 1c 3e e1 bf 9a be 7d 22 0b bf bf 5a 33 be
       0.15304923 -0.30224517 -0.543495 -0.17515086
0000c0 dd 02 a8 3e b4 2d 31 bc bd 3e c3 be 89 07 88 3e
       0.32814685 -0.010814119 -0.38133803 0.2656825
0000d0 de a2 54 3e d3 b8 23 3e 75 c2 cc 3e 8a 8f a1 3d
       0.20765254 0.15988474 0.3999211 0.07888706
0000e0 39 bf 16 3e 86 08 66 ba df a2 de 3e 5b 9f cc be
       0.14721383 -0.0008775074 0.43483636 -0.3996533
0000f0 dd 79 bc be b4 8a f8 bd e1 d5 67 3e 18 bd b3 3e
       -0.36811724 -0.121358305 0.22640182 0.35105205
000100 97 77 95 3e 17 f4 cd 3d a3 f1 10 3e 7b 39 fb bd
       0.29192802 0.10056322 0.14154677 -0.12266823
000110 48 58 ba be 11 1a b6 be 22 ab 0d be d8 17 82 3e
       -0.36395478 -0.35566762 -0.13834813 0.25408816
000120 9e 4c 9a be ea 9d 91 3e 83 44 96 3e fa cc ab 3e
       -0.3013658 0.2844079 0.29349145 0.33554822
000130 0b 02 2a be 35 4a 82 3d 35 db fa be 2c 0e b8 3e
       -0.16602342 0.0636181 -0.48995367 0.35948312
000140 80 9a 7e 3e 1a 45 e7 3d 44 c5 0d be eb f5 08 bd
       0.24863625 0.11292477 -0.13844782 -0.03343765
000150 b3 a0 c0 be 85 2f 43 3f 67 71 3d be b7 44 8b be
       -0.37622604 0.76244384 -0.18500291 -0.27200863
000160 94 fe fa bd cd 08 9c be a9 ed fb 3e f9 81 b6 bb
       -0.12255588 -0.30475464 0.49204758 -0.005569693
000170 5d 59 6a be 21 a2 b1 3e 69 42 af be c1 d3 8d bd
       -0.22885652 0.34694007 -0.34230354 -0.069251545
000180 69 bf d3 3e 29 7b 98 3e 27 bc 3b be 18 c0 5b be
       0.41356972 0.29781464 -0.18333493 -0.21459997
000190 c8 94 f5 be a6 a8 a1 3e e9 0b 07 3d 12 f3 ad 3e
       -0.47965074 0.3157398 0.032970343 0.3397451
0001a0 73 a2 c9 bd f7 8f 81 be 7d 1b 40 be 8f 5e 9e 3e
       -0.09845438 -0.2530515 -0.18760486 0.30931517
0001b0 65 8f 0c be 85 e9 2a be 47 18 d8 3e f0 ba ee be
       -0.13726576 -0.16690643 0.42206022 -0.46626997
0001c0 6e aa 40 3d fa 2e 1d 3f 95 79 bc be 36 ec 3b 3d
       0.047037534 0.61399806 -0.3681151 0.045879565
0001d0 35 52 a0 be 88 83 bd bd 73 ad d7 3e 19 55 9b 3e
       -0.3131272 -0.09253603 0.4212452 0.30338362
0001e0 a5 7b f8 3d 1e be 43 be 95 d1 1b 3e f2 04 06 3e
       0.12132958 -0.19115493 0.15216668 0.13087824
0001f0 41 9a b7 be de 99 97 be 52 fa f2 3e 67 68 8d 3e
       -0.35859874 -0.2960958 0.47456604 0.27618715

nets.0.2.weight f4 [128]
000000 bf 50 7f 3f e1 18 83 3f 7a 68 81 3f 7a 32 83 3f
       0.99732584 1.0241967 1.0110009 1.0249779
000010 c0 79 84 3f f6 e6 69 3f d7 7f 84 3f 3f 6b 92 3f
       1.0349655 0.91368043 1.0351514 1.1438979
000020 f5 46 70 3f 65 97 61 3f 52 cc 88 3f 77 43 79 3f
       0.9385827 0.88121635 1.0687354 0.9736857
000030 7f 5e 74 3f 15 65 7f 3f 07 2c 7b 3f 32 49 71 3f
       0.9545669 0.99763614 0.98114055 0.9425231
000040 6d 0b 8a 3f 21 eb 69 3f fc f0 9c 3f b9 90 6a 3f
       1.0784737 0.91374403 1.2261043 0.9162708
000050 70 71 47 3f 56 d8 8a 3f b3 3f 7b 3f 94 fd 52 3f
       0.77907467 1.084727 0.9814407 0.8241818
000060 f1 0b 79 3f c3 53 7c 3f f7 39 7d 3f 75 48 66 3f
       0.97283846 0.9856531 0.9891657 0.8995431
000070 ef 7d 89 3f 93 dc 71 3f e3 07 48 3f 30 a5 49 3f
       1.0741557 0.94477195 0.78137034 0.7876768
000080 29 f6 72 3f f5 1f 70 3f b2 60 5c 3f f7 5b 75 3f
       0.9490686 0.9379876 0.86085045 0.9584345
000090 5e 49 88 3f ca 23 77 3f 07 b5 8d 3f 57 cf 7c 3f
       1.064739 0.96538985 1.107087 0.98753875
0000a0 48 a4 80 3f 09 0a 71 3f 30 af 86 3f b3 61 67 3f
       1.0050135 0.9415594 1.0522213 0.9038345
0000b0 94 2e 88 3f c0 b5 55 3f 33 dc 7d 3f 09 b9 80 3f
       1.0639215 0.83480453 0.9916412 1.0056468
0000c0 4d 9c 82 3f 38 f2 8d 3f 80 d0 57 3f 2b 3d 94 3f
       1.0203949 1.1089544 0.8430252 1.1581167
0000d0 b0 b7 66 3f c9 dd 71 3f d6 5c 72 3f 21 b5 6d 3f
       0.90124035 0.9447904 0.94672906 0.92854506
0000e0 a7 6b 77 3f 34 54 7f 3f 7e 7d 80 3f 42 b2 15 3f
       0.9664864 0.9973786 1.0038297 0.58475125
0000f0 f1 a6 28 3f 06 57 6d 3f 75 e8 77 3f fd ab 7d 3f
       0.6587973 0.9271091 0.96839076 0.9909056
000100 a6 49 83 3f 67 ac 85 3f 8a b2 8c 3f b9 c5 8c 3f
       1.0256851 1.0443238 1.0991986 1.099784
000110 d2 be 7f 3f ce ee 81 3f e8 17 65 3f fa 15 83 3f
       0.99900544 1.0151002 0.89489603 1.0241082
000120 1e 2c 4f 3f 75 49 81 3f 66 47 85 3f d5 7d 70 3f
       0.8092669 1.0100542 1.0412414 0.93942004
000130 d7 47 54 3f 4e ad 86 3f 77 b1 85 3f 90 0b 80 3f
       0.8292212 1.0521638 1.0444783 1.0003529
000140 c8 e3 8a 3f 9a dd 59 3f ba 64 92 3f e6 62 7d 3f
       1.0850763 0.8510376 1.1436989 0.9897903
000150 58 1b 82 3f ec 74 6c 3f b5 45 4a 3f 85 ef 90 3f
       1.0164595 0.9236591 0.79012614 1.1323096
000160 ab b9 6c 3f 00 24 95 3f c3 47 86 3f 96 21 83 3f
       0.92470807 1.1651611 1.049065 1.0244625
000170 0f 8a 81 3f 8a be 79 3f 4e 3c 86 3f 64 a3 83 3f
       1.0120257 0.97556365 1.0487154 1.0284238
000180 6e e4 6f 3f c0 7c 7e 3f f5 a8 87 3f dd 28 77 3f
       0.9370793 0.99409103 1.0598437 0.9654673
000190 6e e3 83 3f 91 88 46 3f 0f c9 2b 3f a9 fe 83 3f
       1.0303781 0.77552134 0.67103666 1.0312091
0001a0 ab 4c 80 3f c2 77 5d 3f 38 5f 85 3f 42 81 82 3f
       1.0023397 0.8651086 1.0419683 1.0195696
0001b0 d4 a6 80 3f b7 b3 83 3f 4b ec 76 3f 94 ea 89 3f
       1.0050912 1.028922 0.96454304 1.0774713
0001c0 3d 56 87 3f 6d 1f 7b 3f 53 40 49 3f 53 4d 85 3f
       1.0573193 0.98094827 0.78613776 1.0414222
0001d0 99 79 6c 3f 36 d3 73 3f 0f 0d 8f 3f 4f 57 71 3f
       0.92373043 0.9524416 1.117586 0.9427385
0001e0 33 5d 87 3f 6b b0 56 3f 52 5e 83 3f c0 bf 82 3f
       1.0575317 0.8386294 1.0263159 1.0214767
0001f0 08 68 64 3f f2 95 85 3f b5 87 7f 3f ad 73 87 3f
       0.8922124 1.0436385 0.9981645 1.0582176

nets.0.2.bias f4 [128]
000000 eb 01 9e 3c ab 7c 8f 3d 11 0a d8 3d 21 58 00 3e
       0.019288024 0.070062004 0.10548795 0.12533619
000010 ff 01 27 3d 62 3e 98 bd 06 4e a7 3c 51 82 e6 3d
       0.040773388 -0.074337736 0.020422947 0.11255325
000020 53 f5 78 3d a8 bf 5f 3c 88 4c d1 bd 39 c1 fb 3c
       0.060780834 0.013656534 -0.10219675 0.030731784
000030 36 82 b7 bd 8e e2 ef bd fa 51 3c 3d 2d a5 92 ba
       -0.08960383 -0.11713134 0.045976616 -0.0011188142
000040 fb 9d d2 bd 86 ca 8c 3d 0c 31 c5 3d 94 a3 b4 bd
       -0.10284039 0.06874566 0.096284956 -0.088202626
000050 82 d5 86 bd 48 a3 eb bc b9 5c 00 3c 86 16 82 bc
       -0.06583692 -0.028764382 0.007834607 -0.01587988
000060 f3 94 35 3d 7c 24 21 3e 79 ec a7 3d a4 16 ad 3c
       0.044331502 0.15736574 0.081994005 0.02112896
000070 1c 2f 2c 3d 79 45 ad 3d 52 f7 aa 3d f9 d9 66 bd
       0.042037115 0.084605165 0.08347954 -0.05636022
000080 04 0d 49 bd 37 dd 2f 3e e2 91 af bd fa 0e 0e bc
       -0.04908468 0.1717423 -0.08572747 -0.008670563
000090 3c b7 72 3c d5 d9 17 bd 39 b1 e8 3d 92 5d 8c 3d
       0.014814194 -0.037072975 0.113619275 0.068537846
0000a0 c0 1d 61 3d 96 fa f4 bd e5 3e ff 3d e9 66 f1 3d
       0.054960012 -0.11961858 0.12463168 0.11787207
0000b0 fe b6 be 3b 18 6e 35 3c ab 7c 6e bc 3d f6 51 3e
       0.005820154 0.011073612 -0.01455609 0.20504089
0000c0 a5 4f e4 3c 62 2e 1b 3e 5e 31 2f bc 0f 83 35 bd
       0.027870009 0.15154412 -0.010692922 -0.04431444
0000d0 f8 28 7d 3d 2b dc f3 bd 9f 7b 9b bd 97 1a 92 bd
       0.06180665 -0.11907228 -0.07591938 -0.07133978
0000e0 8d 5e 59 bc 74 e3 20 3e 35 1d 44 3d a2 be 67 bd
       -0.013267172 0.15711766 0.047879416 -0.056578286
0000f0 90 0c 5b bb b8 2e d0 3d fa cb bc bd 1e ff af 3d
       -0.0033424236 0.10165161 -0.09218593 0.085935816
000100 3f ff 7d bd d9 58 ab 3d fb 4a 8e 3c 8a 43 2a 3d
       -0.062011 0.08366556 0.017369738 0.041568317
000110 cc b9 1e 3e 97 fd 31 be 2d 82 51 bd 05 ff d9 bd
       0.15500563 -0.17381893 -0.051149536 -0.10644344
000120 8d b5 82 3d fe 35 07 be 15 93 3f 3d ff 8f 23 3d
       0.06382284 -0.1320419 0.046771128 0.039932247
000130 ee 27 d3 bd b7 c4 97 bc c3 3f b1 bc d0 05 fc 3d
       -0.1031035 -0.018526418 -0.02163685 0.12305796
000140 04 03 51 bc d8 36 f0 3c 33 12 3a 3d 9f 1b 18 be
       -0.012757067 0.029323027 0.045427512 -0.14854287
000150 70 a8 06 3e 0d bc 2b bc 48 db c6 bd a6 40 b2 3d
       0.13150191 -0.0104818465 -0.09709793 0.08703737
000160 2e 14 0c 3d ce d6 e2 bc f0 1c e4 3d 5e 8e 0a 3d
       0.034198932 -0.027690317 0.11138332 0.03382718
000170 b1 ac 15 bc 8a 3f a9 3c 7e f3 16 3d 7e 9a 36 3d
       -0.009135411 0.02066018 0.036853306 0.04458093
000180 74 5d 7a bd d4 73 5b 3c ab 58 50 3e 09 7f b4 3d
       -0.06112428 0.013394315 0.20346324 0.088132925
000190 12 7e db bd 0c d5 8b 3d 4a 01 2a be cb ec 06 3d
       -0.107174054 0.06827745 -0.16602054 0.032940667
0001a0 71 97 e5 3d 43 89 37 3d fd 55 06 bd 36 fb 95 3c
       0.11210526 0.044808637 -0.03279685 0.018308263
0001b0 67 a3 ae 3d 98 d3 fc 3d 34 d3 bc 3d c5 8d 82 3d
       0.0852726 0.12345046 0.09219971 0.06374697
0001c0 d3 95 88 3d c7 e9 a6 bd 0d 78 cd bc 61 0c 84 3c
       0.06669202 -0.08150058 -0.025081659 0.016119184
0001d0 72 3d 3b bb 0b f3 b2 3d 07 c3 f4 bc 28 85 85 bd
       -0.002857056 0.08737763 -0.029878153 -0.06519538
0001e0 3f fd 30 3c 18 00 38 bb 3e 7d 2a 3d 2c 9a 1f 3d
       0.010802566 -0.0028076228 0.041623347 0.03896539
0001f0 b5 21 75 bd 3e 41 b9 3c 7e f6 88 3d ac 50 b5 bc
       -0.0598466 0.022614118 0.0668764 -0.022133194

nets.0.2.running_mean f4 [128]
000000 ba 5f 98 3e 40 b8 7f 3e 8b 82 ce 3e 91 44 26 3d
       0.29760534 0.2497263 0.4033397 0.040592734
000010 77 92 34 3e fd ed c5 3e 35 a8 d7 3e 3c aa 2e 3b
       0.17633997 0.38658133 0.4212052 0.002665176
000020 b7 ac 4d 3d e9 19 91 38 d3 dc 67 3d a8 d7 ab 3d
       0.05021354 6.918965e-05 0.05660708 0.083907425
000030 f7 37 24 3b bc 7f 9b 3d c0 42 64 3d 9b 9e 8d 3e
       0.0025057772 0.07592723 0.05572772 0.2766007
000040 17 a3 cd 3e df 47 23 3f 6a ef 09 3e 0f 84 ae 3c
       0.4016349 0.6378154 0.13470235 0.021303205
000050 cf f1 57 3e 3e 76 09 3e 57 5f d2 3e d0 e1 90 3e
       0.21088336 0.13424012 0.41088364 0.2829728
000060 87 c4 a4 3e c3 62 00 3d 9e 0e 6f 3c 5f 37 ed 3e
       0.32181188 0.031344187 0.014590887 0.46331307
000070 cf 74 b0 3e bc db 5d 3d 37 b4 b6 3d 57 5a ef 3e
       0.34464118 0.054164633 0.08921092 0.4674861
000080 39 cc af 3c 3a 2a 92 3b e7 cd 5d 3e 35 4e fb 3e
       0.021459686 0.0044606 0.21660577 0.49083105
000090 f3 27 29 3e 28 5e fa 3e dd 75 24 3e 97 c7 c1 3d
       0.16519146 0.4889996 0.16060586 0.09461897
0000a0 09 bd bf 3e 1d bd 4d 3e fa f1 ac 3d bb 00 b8 3d
       0.3744891 0.20091672 0.08444591 0.08984514
0000b0 01 45 83 3e d1 bd dd 3a 53 78 b2 bb 18 5d bf 3d
       0.25638583 0.0016917532 -0.0054464727 0.09343928
0000c0 e4 6c b9 3e de ec 39 3e 5d 32 39 3c e3 9d 97 3e
       0.3621589 0.18156764 0.011303511 0.29612646
0000d0 96 16 8a 3e ed 4a 7a 3e e4 63 d5 3e 20 86 88 3e
       0.26970357 0.24442644 0.41677773 0.2666483
0000e0 94 e6 5c 3e 5e 42 f4 3d b7 3f ed 3e fe e1 63 3d
       0.21572334 0.11926721 0.46337673 0.055635445
0000f0 45 39 97 b9 4f e1 b3 3d 3e ae 9e 3e 0a ec c1 3e
       -0.00028843633 0.087832086 0.3099231 0.37875396
000100 88 ff 99 3e 20 b7 7a 3e 11 0e 55 3e ea 2e d4 3d
       0.30077767 0.24483919 0.20806147 0.10360511
000110 6f 4b 36 3d c2 56 c6 3c 53 11 e1 3d 71 d4 94 3e
       0.044505533 0.024211291 0.109896325 0.2906833
000120 a9 0b ff 3c 14 46 b9 3e 82 35 b8 3e cc 90 bf 3e
       0.03113349 0.36186278 0.35978323 0.3741516
000130 70 37 9b 3d 31 a3 e4 3d f1 d9 34 3d 91 da c3 3e
       0.07578933 0.11163939 0.044153158 0.3825269
000140 de 9e 95 3e 9e 9c 85 3e 5b 01 ca 3d 45 d0 35 3e
       0.2922277 0.26096052 0.0986354 0.1775523
000150 2f 01 f8 3c 8e 3f 42 3f bd 15 b8 3d 04 5c d9 3c
       0.030274002 0.75878227 0.08988521 0.026533134
000160 e0 99 94 3d 05 0c b3 3c 44 27 00 3f fa a8 f3 3d
       0.07255912 0.021856317 0.50059915 0.11897464
000170 08 74 08 3d d3 f2 d3 3e c1 8f c3 3c 0c be 15 3e
       0.03331378 0.41396198 0.023872258 0.14623278
000180 78 99 f2 3e 3a d8 ad 3e 57 59 06 3d b1 35 06 3e
       0.47382712 0.3395403 0.032800045 0.13106419
000190 96 23 9d bb d7 97 af 3e 03 cd 10 3e 26 ba bb 3e
       -0.004795502 0.34295532 0.14140706 0.36665457
0001a0 ca cd bf 3d 75 25 a7 3d 66 d9 8a 3c 5e 6e a0 3e
       0.09365423 0.08161441 0.016949367 0.31334203
0001b0 34 e5 97 3d db bb 98 3d 00 9b dc 3e f4 87 32 3b
       0.07416764 0.074577056 0.43087006 0.002724168
0001c0 bf 84 16 3e b3 c5 1d 3f bb 63 7f 3c 78 49 2a 3e
       0.14699076 0.6162979 0.015587742 0.16629589
0001d0 ac 2c 83 3d 32 89 f0 3d ef df dc 3e ce ed a4 3e
       0.06405005 0.11744918 0.43139598 0.3221268
0001e0 33 cb 60 3e f0 ab 90 3d 6c 2b 5f 3e 91 31 68 3e
       0.21952514 0.070640445 0.21793908 0.22675158
0001f0 d6 5f 33 3d 23 7c 95 3c 2a 42 fb 3e f3 bb 9d 3e
       0.04379257 0.01824767 0.49073917 0.30807456

nets.0.2.running_var f4 [128]
000000 22 cc 91 3d 72 ee a1 3d 9e 33 75 3d 71 48 2c 3c
       0.07119013 0.07906808 0.05986368 0.010515318
000010 ea 90 6d 3d 05 4c 2d 3d aa 69 df 3d 3e 21 80 3a
       0.05799953 0.042308826 0.10908826 0.0009775532
000020 60 6a 6a 3c 4a 1a 3f 3a 02 bd 51 3c 83 3d ea 3c
       0.014307588 0.0007289989 0.012801411 0.028593784
000030 4e 2c 65 3a d4 16 c7 3c 0e dd 4c 3c e7 e8 6d 3d
       0.00087422587 0.024302877 0.012503875 0.05808344
000040 dd ed b7 3d cd 12 3b 3e c1 37 29 3d 22 fd 9e 3b
       0.08980916 0.1826889 0.041312937 0.004851953
000050 0b 9b 6b 3d 80 7e 03 3d b7 cb b8 3d 9e c5 8a 3d
       0.057520907 0.03210306 0.090232305 0.06775974
000060 3d 47 c9 3d a0 d7 11 3c 78 5e 7d 3b 30 9c db 3d
       0.09828041 0.008901507 0.0038661044 0.1072315
000070 97 e0 75 3d 0d d4 92 3c 89 bd 1d 3d b4 87 cc 3d
       0.06002864 0.01792338 0.038510833 0.09986821
000080 73 20 d2 3b 8c a7 c1 3a d1 f4 8a 3d ac 62 d0 3d
       0.0064125597 0.0014774664 0.06784976 0.1017507
000090 44 9c 20 3d fa e9 ec 3d 3c 81 14 3d b6 6c 09 3d
       0.039211527 0.11568065 0.03625606 0.03355094
0000a0 c9 5c 68 3d b4 a6 b2 3c bf 5e d9 3c b7 15 21 3d
       0.05672911 0.021808006 0.026534436 0.03932735
0000b0 0d 44 a3 3d 2b df 0a 3a ac 01 95 36 5e 5d 06 3d
       0.07971964 0.0005297537 4.4407407e-06 0.032803886
0000c0 ed 03 cb 3d 2f cb 8e 3d 82 e8 37 3b fc ae 83 3d
       0.09912858 0.06972348 0.002806217 0.0642986
0000d0 5b 79 91 3d 14 3e 9d 3d 96 80 ad 3d b4 a8 df 3d
       0.07103225 0.07677856 0.084717914 0.109208494
0000e0 75 bf 6c 3d 00 ea ed 3c b3 e3 fa 3d ac 57 af 3c
       0.057799775 0.029042244 0.122504614 0.02140411
0000f0 cf d7 b9 39 e5 c7 c1 3c 17 f1 d5 3d 80 e1 b9 3d
       0.0003544674 0.023654887 0.10446375 0.09076214
000100 af b5 49 3d ea b9 bf 3d cc 1e 4b 3d 15 6c 03 3d
       0.049245533 0.09361632 0.049589917 0.032085497
000110 44 f4 85 3c 00 da db 3b 7f 36 1d 3d eb 67 7f 3d
       0.016351826 0.0067093372 0.03838205 0.062354963
000120 af 8f 0d 3c 23 09 03 3e 4f 04 ed 3d 94 09 c9 3d
       0.008640214 0.12796454 0.115730874 0.0981628
000130 b8 9c bb 3c 8a 37 8e 3c b3 05 97 3c 28 f3 a4 3d
       0.022901878 0.017360467 0.018435335 0.08054191
000140 07 18 98 3d f0 8d d7 3d e6 9c 0c 3d f3 b4 94 3d
       0.07426458 0.10525119 0.034329318 0.07261076
000150 56 af 2d 3c 25 b7 c0 3d 55 3f f6 3c 95 f2 cc 3b
       0.010600885 0.09409932 0.030059496 0.006254504
000160 d6 2d 96 3c d4 ef b7 3b 37 75 cc 3d 54 16 ee 3c
       0.018332403 0.0056133065 0.099832945 0.029063381
000170 fe 4f 09 3c 14 23 0f 3e bc d8 bf 3b 47 47 64 3d
       0.008380888 0.13978225 0.005854694 0.055732038
000180 0e 3a 38 3e f1 60 b6 3d a9 9b df 3b 12 bf 5f 3d
       0.17990896 0.08905209 0.006823976 0.05462558
000190 49 a5 34 36 e8 e1 af 3d 65 0e 0e 3d 4c 16 ac 3d
       2.6918299e-06 0.0858801 0.034681696 0.0840269
0001a0 43 4e b5 3c 05 be fc 3c 2d 25 2d 3b 75 1d 1f 3d
       0.022132045 0.030852327 0.0026419864 0.03884645
0001b0 70 9f ae 3c b4 bf b8 3c 28 c3 af 3d 16 9b b9 3a
       0.02131626 0.022552349 0.08582145 0.0014160599
0001c0 2c 43 16 3d 3d 87 6d 3d c7 50 93 3b ee ff 40 3d
       0.036685154 0.0579903 0.0044957134 0.047119074
0001d0 59 19 c5 3c ee 47 25 3d 62 4d cc 3d b9 5a 5e 3d
       0.024059938 0.0403518 0.09975697 0.05428574
0001e0 10 9c 84 3d 2f 5b be 3c 7c 76 64 3d 93 f0 96 3d
       0.06475079 0.02323684 0.055777058 0.07370105
0001f0 3d d9 6a 3c da 4f 96 3b 21 ec d5 3d 5a 13 98 3d
       0.01433402 0.0045871558 0.10445429 0.07425566

nets.0.3.weight f4 [128, 128]
000000 2b b8 64 3d 52 8e a1 bd 00 d6 7a bd b4 f0 80 bd
       0.0558397 -0.078884736 -0.061239243 -0.062959105
000010 2c 4d df 3d 7f 27 83 3d 86 b5 b9 bd b5 6b 37 3b
       0.10903391 0.06404018 -0.09067826 0.0027987782
000020 de ea 58 be 21 98 ad bc 6e db 29 bd f2 1b 9f 3d
       -0.21183345 -0.021190705 -0.04146903 0.07769002
000030 2a 27 ab 3c d8 04 a1 bc 45 cc 6b 3d bb 4c 85 3d
       0.020892698 -0.01965563 0.057567853 0.06508776
000040 77 0a d4 3d f3 db 83 bd bc 54 81 3d ab cd 43 bd
       0.103535585 -0.06438436 0.0631499 -0.047803562
000050 27 fa c3 3b 5a 73 0c bd df 0e b4 3d 5a 0b 0d bd
       0.005980748 -0.034289695 0.08791899 -0.034434654
000060 a5 de 4a bc 0d f8 bc 3d 41 9e 45 be b3 32 27 3a
       -0.012382184 0.092269994 -0.1929865 0.0006378099
000070 ac 81 06 3e 8f 68 31 bd 79 f2 b9 bc 8c 3d ac bd
       0.13135403 -0.043312605 -0.022698628 -0.08410177
000080 b7 d1 db bb 9a 23 60 bd 12 d9 1f 3d 85 25 b9 3d
       -0.0067083496 -0.054721452 0.039025374 0.090403594
000090 9f dc c1 bd 60 aa 81 3d ee 8d 73 3d f3 bc 38 3d
       -0.09465908 0.063313246 0.059461527 0.04510207
0000a0 c9 aa 0b 3d b1 a7 6a bb 0e e5 0e bc 31 fe 4c 3d
       0.03409842 -0.0035805518 -0.008721603 0.050047103
0000b0 84 70 71 3b 09 95 86 bd 57 8e 91 3d 3a fb 38 be
       0.0036840746 -0.06571395 0.07107227 -0.18064585
0000c0 39 b9 83 3c 78 46 68 bd 2f 77 84 bd 3d 71 41 bd
       0.016079532 -0.05670783 -0.06468045 -0.047227133
0000d0 38 f4 c9 bd 1f 0d ca 3d d9 46 00 3d 32 f6 83 3b
       -0.09861034 0.09865784 0.031317566 0.0040271515
0000e0 fb 9f 4d 3c d3 e8 24 3b ef 9e 7e bc f6 d1 72 3b
       0.012550349 0.0025163188 -0.015540822 0.0037051416
0000f0 0a e6 e2 bc f1 47 2f bc 8a 75 18 3d 22 8b 85 bc
       -0.027697582 -0.0106983045 0.03722147 -0.016301695
000100 b1 4b 1b bb 29 54 95 3c ce 1d 62 3c 08 c2 19 bd
       -0.0023696239 0.018228607 0.013801051 -0.03753856
000110 d8 5a 26 bd 83 31 88 bc b7 2b 8c bb c5 b1 9b bd
       -0.04061398 -0.016625172 -0.004277672 -0.07602266
000120 34 af 92 3c e4 a0 cb bc 0a 33 8b bd b4 23 ba 3c
       0.017905809 -0.024856992 -0.06796844 0.022722103
000130 ae 85 cd bc f5 16 15 3d c0 37 a8 3c a2 ef 2e bd
       -0.025088158 0.036398847 0.020534396 -0.042709
000140 ac 8a ee bc 8e c3 6e bd f9 9d 8a 3c 32 4c b8 3d
       -0.029118858 -0.058291964 0.01692103 0.08998908
000150 56 ce 54 3d dd c4 96 3c 36 ba 13 bc 3a 9c 95 3d
       0.05195459 0.018404419 -0.009016564 0.073051885
000160 27 cc da 3b f0 51 e0 3b ba ee 5a 3d e0 aa 56 bd
       0.006677169 0.006845705 0.053450324 -0.052409053
000170 24 0b ee bb 28 45 7e bd 81 31 14 bd e9 52 07 bd
       -0.0072645117 -0.06207767 -0.036180023 -0.033038054
000180 c5 87 12 3d a4 87 da 3c 39 18 fd bc a3 c3 d2 bc
       0.03577401 0.026676007 -0.03089534 -0.025728052
000190 69 18 44 bd dd ce de 3c 04 34 eb bc 62 2e 92 3d
       -0.04787484 0.02719825 -0.028711326 0.07137753
0001a0 4e c9 b8 3d c0 a6 bc 3c 84 b7 7e bd 42 2b a5 bd
       0.09022771 0.023028731 -0.062186733 -0.080648914
0001b0 52 a3 93 3c de f1 9c bd 92 e0 a5 bd 75 ab 3d bc
       0.018022213 -0.0766332 -0.08099474 -0.011576523
0001c0 9a e7 11 bc c9 ef 80 bd e5 30 d5 3c c1 3c fe bc
       -0.008905316 -0.062957354 0.026024291 -0.03103483
0001d0 7d 1b a1 bc 3a e3 1d 3c f5 07 2f 3d 52 7b b4 bb
       -0.019666428 0.009636695 0.042732198 -0.005507865
0001e0 ee 7e 6f 3d b9 d5 cd bc 79 61 4f bd 83 5a eb 3c
       0.05847066 -0.025126325 -0.050630067 0.028729683
0001f0 4c 31 61 bc 91 90 4a bd 0a 6d 20 3d 05 60 bb 3d
       -0.013744663 -0.049454276 0.039166488 0.09149174
000200 4c f9 37 bc eb 5b d2 3d 28 1f ce 3d 51 f2 53 3d
       -0.011228871 0.10271438 0.10064536 0.051744763
000210 83 6e 79 bd 6e 0e 91 bd 2b de c4 3d 9e 8a 45 bc
       -0.060896408 -0.0708283 0.09612688 -0.012056975
000220 99 a9 83 3c 1f 10 11 3d 77 cc 9b 3b c6 b3 16 bd
       0.016072081 0.035415765 0.0047545987 -0.03679254
000230 db 63 82 3d 28 f9 9c bd 56 45 aa 3d 63 14 5c 3c
       0.06366702 -0.0766471 0.08314006 0.013432595
000240 7e af 89 3d 69 71 28 3c 09 92 07 3d 70 9a ef 3c
       0.067229256 0.010280945 0.033098254 0.029248446
000250 9f 05 06 3d 7a 21 b7 3d cc 12 b0 3d 4a 19 5d bd
       0.032720204 0.08941932 0.08597335 -0.053979196
000260 cc 58 63 bd 23 1c 8f 3d 14 bd 13 be 45 2c 1c 3d
       -0.055504605 0.069877885 -0.14427596 0.038128156
000270 39 cc e2 3c fc 1a 89 3c 99 0e 48 bd e3 b0 15 bc
       0.027685272 0.0167365 -0.048842046 -0.009136411
000280 9f 40 e4 b9 0a 64 e8 3c 09 93 e9 bc a9 ae be 3d
       -0.00043535695 0.028368015 -0.028512495 0.093106575
000290 4b 93 73 bd 40 28 a8 3c 36 2b 86 bd e4 78 01 3c
       -0.05946664 0.020527005 -0.065512106 0.007902358
0002a0 01 f5 c8 3d cc 14 a6 3d f1 4c 2c 3d 66 93 80 bc
       0.09812356 0.081094354 0.042065565 -0.015695285
0002b0 85 cc f4 bc 80 7f 8e 3d 0f 05 10 bd 08 0b bd bd
       -0.029882679 0.069579124 -0.035161074 -0.0923062
0002c0 06 60 6e 3c 0f f7 3e be 0e 7a e5 3c 75 cd 82 bd
       0.014549261 -0.18648933 0.028012302 -0.06386844
0002d0 4f 22 ce bc 14 5e aa 3c 28 b2 04 3d 6e 5b d9 3d
       -0.025162844 0.020796813 0.032396466 0.10613142
0002e0 44 0d 94 bd 7a d1 53 3d 3a db af bd 94 2e da bc
       -0.07229093 0.051713444 -0.08586736 -0.026633538
0002f0 05 5a 31 bd 3b 7e 17 bd b6 66 00 bd c7 7e 96 bd
       -0.04329874 -0.036985617 -0.031347953 -0.073483996
000300 35 c6 98 bd b9 a0 a3 bd d9 73 86 bd c1 87 72 3b
       -0.0745968 -0.0798964 -0.06565065 0.0037007185
000310 3e 0f 46 3e be 23 9b b9 1e d4 70 3d 52 7b 39 be
       0.19341752 -0.00029590534 0.05879604 -0.18113449
000320 0e c6 a5 3c 54 48 af bc 87 29 a4 3d af 7d 08 bd
       0.020236041 -0.021396793 0.08015733 -0.033322986
000330 15 c4 ab 3b ef be bd 3d 58 99 0d 3d 21 45 02 be
       0.0052418807 0.09264933 0.034570068 -0.12721683
000340 8d b2 3e bd 72 c1 53 3d 9b 80 64 bd a3 55 8a 3d
       -0.046556998 0.051698156 -0.05578671 0.06754615
000350 c5 f0 82 3c 90 2b 41 3d 20 25 80 bb c6 06 ab 3c
       0.015983948 0.047160685 -0.0039106756 0.020877253
000360 a9 88 26 3d 1b eb 9d 3b 6b f4 a0 3d 0f 3d 5f bc
       0.040657673 0.0048192865 0.07859119 -0.013625397
000370 62 24 99 3d 8f 6c 73 bb 45 54 11 3c b0 6e 04 3e
       0.074776426 -0.0037143563 0.008870189 0.12932849
000380 04 a5 f0 bc c9 c6 c2 bd 98 14 88 bd 2f 5d bb 3d
       -0.02937556 -0.095105715 -0.06644553 0.09148633
000390 98 75 f2 3c f6 b6 a9 3d ad fb a7 3d b7 7c 7c bc
       0.029597089 0.0828685 0.082023 -0.015410594
0003a0 5d 6d 9b 3c fe 01 c0 bc 0b 10 9e bd df a4 81 bc
       0.018973047 -0.02343845 -0.07717904 -0.015825687
0003b0 62 26 fb 3c f2 69 a8 bd 0b ce b4 3c f6 60 8a 3d
       0.03065795 -0.082233325 0.022070905 0.06756775
0003c0 07 6e a3 3b 84 1c 91 bd 46 04 de 3a 47 79 1a bc
       0.0049874815 -0.07085517 0.001693853 -0.009428329
0003d0 ac b3 77 3d 7c d6 4c 39 48 42 cf ba 47 89 22 bd
       0.060474083 0.00019534858 -0.00158126 -0.0396817
0003e0 5b 14 18 3c f8 eb 66 bd ac d3 92 3d af 21 04 bd
       0.009282197 -0.05637738 0.071692795 -0.032258686
0003f0 54 13 94 3d fb d8 d2 bc 1b 79 a5 3d 99 67 1d 3e
       0.07230249 -0.02573823 0.0807974 0.1537155

nets.0.3.bias f4 [128]
000000 e5 10 25 3d d4 64 fc 3d 48 f4 6c bd 27 09 f9 3d
       0.040299315 0.12323919 -0.057850152 0.12159949
000010 63 ea ca 3d 3e 10 01 be 7f 9d b3 bd c9 62 da bd
       0.09907987 -0.12603852 -0.08770274 -0.10663373
000020 c5 13 ff 3d 1b d6 89 3d 98 d4 bf bd ba e8 df 3d
       0.124549426 0.067302905 -0.09366721 0.10933061
000030 40 bf 00 3e 86 40 d5 bd 37 6d 23 be a0 4f d0 bd
       0.12572956 -0.104126975 -0.15959631 -0.10171437
000040 79 16 9e 3c 6b 4b 63 bc 9e 3b 40 3e 65 40 4a 3d
       0.019297825 -0.0138729615 0.18772742 0.049377818
000050 e3 c7 8f bd 5a a3 5d bd 25 a6 9f bc d4 75 85 bd
       -0.07020547 -0.054110862 -0.019488404 -0.065166146
000060 12 37 8d bd de 26 4a bd df ef 60 bd aa b4 f2 bd
       -0.068952695 -0.049353473 -0.05491626 -0.11850865
000070 48 d0 ca bd fa 9e a0 3d 93 5b 9d bd c3 ac 06 36
       -0.09903008 0.078428224 -0.07683482 2.0068117e-06
000080 c3 f2 7e 3c 46 8e 2e bc d6 89 e7 bb a2 0c 99 3d
       0.015560809 -0.010654038 -0.007065992 0.07473113
000090 d9 f8 7c 3c 17 24 75 bd 17 f3 ac 3d 4a a6 14 3e
       0.015440189 -0.05984887 0.08444803 0.14516559
0000a0 8b d9 cd 3c 7e 35 72 bd 08 b6 32 3e 2b 9e 21 3e
       0.025128147 -0.059133045 0.17452252 0.15782993
0000b0 ec 53 4d bd ea 34 d7 bc 76 fb 1d 3e 4a 90 94 bd
       -0.050128862 -0.026270349 0.15427956 -0.072540835
0000c0 7b 3d 52 3d 83 96 ec 3d 37 ad 06 3e 64 27 7f bd
       0.051328164 0.11552145 0.13152014 -0.062293425
0000d0 2a b6 bb 3d 85 ff 3a 3d dc 1f b3 bb 87 08 85 3e
       0.091656044 0.04565384 -0.0054664444 0.25983068
0000e0 8b 99 4a 3e 8e 0d 79 3e 2f ed f4 3d a0 8a 44 3d
       0.19785134 0.24321577 0.11959302 0.047983766
0000f0 47 8d 86 3c 67 5c 17 3e 41 8f 0e bd 61 1d 3e 3e
       0.016424788 0.14781342 -0.034804586 0.18565895
000100 c1 58 4b 3c 3e f4 4f 3d 90 dd 01 be f1 3e 4d bc
       0.012411297 0.050770037 -0.12682176 -0.012527213
000110 35 d1 3b bd 65 ed 1c bc a7 0a a6 bc b6 80 5f bd
       -0.045853812 -0.009578084 -0.020268751 -0.054566108
000120 e8 de 12 3e 0c 32 17 be fe 22 85 3d 4d a3 6b bc
       0.14342844 -0.14765185 0.06500815 -0.014382196
000130 68 ef 43 3c 05 4d d2 bd c1 95 c3 3d 0c ec 86 3d
       0.011958934 -0.102685966 0.09550048 0.06587991
000140 4a 96 25 bd 5c 4d cf 3d d4 60 52 3d d4 55 f8 3d
       -0.04042653 0.10122177 0.051361874 0.121257454
000150 8a c4 18 bd 38 c1 46 3e b1 df 1b bd 2c f7 51 3d
       -0.03729681 0.19409645 -0.038055126 0.051261112
000160 b5 a8 81 bd 86 1e 9f 3e 5d 1f d8 bc e0 6d 69 3d
       -0.063310064 0.31077975 -0.026382143 0.05698955
000170 ae c0 e1 3b b4 fc dd 3c 6a 21 15 3e 93 4c bd 3d
       0.0068894243 0.027098037 0.14563528 0.09243121
000180 01 a4 42 bd e5 29 85 bd 1f ab e3 bb 04 38 ad bd
       -0.047519688 -0.065021314 -0.0069478895 -0.0845795
000190 64 91 e5 bc 37 5d 84 bc 11 ad 1b be e3 20 46 bc
       -0.02802343 -0.01615773 -0.15202738 -0.012092802
0001a0 6c 95 fd 3c b9 23 b7 3d b4 0c 04 3c 11 4d 20 bc
       0.030955039 0.089423604 0.008059669 -0.009783999
0001b0 e2 24 f1 bd 89 ef ba 3d a4 25 86 3d 4e 0a 05 bc
       -0.11774613 0.09127719 0.06550148 -0.008120133
0001c0 b6 4f dc bd fe 77 56 bd ab ce 39 bd 9e fa 8b 3d
       -0.10757391 -0.052360527 -0.04536311 0.06834911
0001d0 da 4a 71 bc 38 17 a4 bc ca b2 f3 bd 19 a9 a0 3c
       -0.014727319 -0.020030603 -0.11899336 0.019611882
0001e0 fc 68 34 bc fa 66 cb bc 36 ea 61 bc 80 a6 c7 bd
       -0.011011358 -0.024829376 -0.01378875 -0.09748554
0001f0 1d 6d 12 3d ce 46 9b bd 39 88 66 3d 62 54 ac 3d
       0.03574859 -0.07581864 0.056282256 0.08414532

nets.0.5.weight f4 [128]
000000 b1 10 79 3f b7 af 6b 3f 32 c5 7c 3f 54 aa 74 3f
       0.97291094 0.92064995 0.98738396 0.955724
000010 8f bb 86 3f c7 b7 7f 3f 1a 4a 7f 3f a5 ee 84 3f
       1.0525988 0.99889797 0.99722445 1.0385329
000020 4e 05 85 3f cf da 82 3f 7f 59 82 3f 08 f0 5b 3f
       1.0392244 1.0223025 1.0183562 0.85913134
000030 19 83 7b 3f 97 79 83 3f ce 7e 8a 3f d9 43 93 3f
       0.98246914 1.0271481 1.0819948 1.150508
000040 97 f4 86 3f f5 2b 83 3f 06 30 6e 3f a5 60 61 3f
       1.0543393 1.024779 0.9304203 0.8803809
000050 ec 60 82 3f ae 33 7a 3f eb 25 7c 3f 58 4d 86 3f
       1.0185828 0.97735107 0.9849536 1.0492353
000060 fc 11 83 3f 51 84 88 3f 0f 6d 83 3f 92 2c 8f 3f
       1.0239863 1.066538 1.0267657 1.1185477
000070 a2 a1 68 3f b9 98 7d 3f bc 6c 85 3f 04 e6 77 3f
       0.9087163 0.9906116 1.0423808 0.9683535
000080 e1 ea 57 3f e3 a1 78 3f cb 14 8b 3f 52 ff 6e 3f
       0.8434277 0.9712202 1.086572 0.9335834
000090 34 8f 83 3f c4 56 87 3f 9e cd 88 3f 04 45 7b 3f
       1.0278077 1.0573354 1.0687749 0.98152184
0000a0 14 7c 6e 3f 53 7a 74 3f fa fa 6f 3f a9 b9 72 3f
       0.9315808 0.9549915 0.93742335 0.94814545
0000b0 4b 1d 84 3f 44 2d 8b 3f 42 86 3a 3f ec 97 80 3f
       1.032144 1.0873189 0.7286111 1.0046363
0000c0 d3 54 80 3f 27 f9 77 3f a6 cf 66 3f a7 85 81 3f
       1.0025886 0.9686455 0.90160596 1.0118912
0000d0 02 f7 68 3f 93 91 7f 3f 9e 7a 8b 3f 93 d7 51 3f
       0.91001904 0.99831504 1.0896795 0.81969565
0000e0 3c f9 88 3f 85 f0 72 3f 38 03 87 3f 50 f3 76 3f
       1.070106 0.94898254 1.0547857 0.96465015
0000f0 80 17 7c 3f 98 07 75 3f fe e3 86 3f 25 cb 71 3f
       0.9847336 0.9571471 1.0538328 0.944506
000100 35 dd 65 3f a4 f4 82 3f 02 97 88 3f dc c3 83 3f
       0.8979066 1.0230908 1.0671084 1.0294147
000110 be 29 7d 3f b7 f4 7d 3f 20 72 85 3f 87 ba 81 3f
       0.9889182 0.9920153 1.0425453 1.0135049
000120 8d 7a 79 3f 65 6e 7e 3f 80 4a 81 3f 5c 23 7e 3f
       0.9745262 0.993872 1.010086 0.99272704
000130 11 87 87 3f 22 3a 71 3f eb 0c 82 3f 31 07 62 3f
       1.0588094 0.9422933 1.0160192 0.88292223
000140 ff c7 76 3f 08 c2 65 3f 1c 6f 84 3f 63 d5 82 3f
       0.9639892 0.89749193 1.0346408 1.022137
000150 11 43 7b 3f d8 aa 58 3f 18 00 86 3f e4 c4 76 3f
       0.9814921 0.84635687 1.0468779 0.9639418
000160 81 b3 8d 3f 52 d7 63 3f db 51 7e 3f dd c9 6f 3f
       1.1070405 0.8900043 0.9934365 0.93667394
000170 ab e9 69 3f 90 2a 88 3f 0e 06 71 3f 03 58 81 3f
       0.91372174 1.0637989 0.94149864 1.0104984
000180 31 69 78 3f c6 21 83 3f 25 2c 77 3f 24 f9 8b 3f
       0.9703551 1.0244682 0.96551734 1.0935407
000190 86 c7 83 3f 87 8b 65 3f a4 f2 88 3f 7a f2 76 3f
       1.0295265 0.89666027 1.0699048 0.9646374
0001a0 9c 3b 6c 3f be df 7d 3f 30 ee 66 3f d8 a7 79 3f
       0.92278457 0.9916953 0.90207195 0.97521734
0001b0 41 2e 81 3f 91 49 88 3f e2 3a 83 3f 5d 78 81 3f
       1.009224 1.0647451 1.0252345 1.0114857
0001c0 b6 65 88 3f 73 b4 6a 3f cb 70 86 3f a3 3b 7c 3f
       1.065604 0.91681594 1.0503172 0.985285
0001d0 12 d9 78 3f 2e 2a 8e 3f 7a df 78 3f c7 b1 54 3f
       0.97206223 1.1106622 0.97216 0.83083767
0001e0 af be 81 3f 2c 65 7d 3f 72 b5 7e 3f 6e a0 7a 3f
       1.0136317 0.989825 0.99495614 0.97901046
0001f0 1d 47 80 3f 76 7b 78 3f bf bb 60 3f c4 63 67 3f
       1.0021702 0.97063386 0.8778648 0.90386605

nets.0.5.bias f4 [128]
000000 71 83 20 be 13 e2 16 be 2f ce ef 3d c9 5a 17 bc
       -0.15675141 -0.14734678 0.11709248 -0.009237953
000010 b5 d6 57 3e ab 93 12 3e df 70 20 bd 87 6b 18 3e
       0.21077998 0.14314143 -0.039170142 0.14884768
000020 07 c4 73 3e 7d 10 5b 3d 44 f6 be 3d b7 e3 9a bb
       0.23805247 0.05348252 0.09324315 -0.0047268528
000030 14 f1 bb bb 61 b7 18 3e b9 a7 97 3d b9 10 60 3e
       -0.005735526 0.14913704 0.074050374 0.21881379
000040 1b d1 ba bc 46 e2 95 3d 98 ae f8 bd 43 7b c3 3d
       -0.022804787 0.07318549 -0.12142676 0.09544995
000050 76 75 34 bc 31 4f 23 3d d6 d1 13 3e b7 60 4f 3e
       -0.011014333 0.039870445 0.14435515 0.20251738
000060 63 24 87 3d 42 ef 09 bd ea e6 19 3d 67 b9 86 bc
       0.06598737 -0.03367544 0.037573732 -0.016445829
000070 be 09 99 3d e5 f5 3b 3d 11 99 28 ba b7 3d 0a bc
       0.07472561 0.0458888 -0.00064315 -0.0084375655
000080 fc 0f 0f bd f7 e3 b2 bb a8 c6 12 3e 6d 97 8a 3d
       -0.034927353 -0.0054593044 0.14333594 0.067671634
000090 18 ad 04 3e 3b c5 e9 3d fd ad 9a 3d a6 61 9b bd
       0.12956655 0.11414572 0.07552717 -0.07586984
0000a0 98 c8 d5 3c 1a a0 32 be 29 91 47 3d 90 ac 8a 3d
       0.026096627 -0.17443886 0.04872242 0.06771195
0000b0 90 3b 96 3d 3f 11 e0 3d e6 78 05 be 9c dd 45 bd
       0.073355794 0.109407894 -0.130344 -0.048307046
0000c0 1f 7d 16 3e cb 46 89 bd b1 b5 11 bd 98 0a a6 3d
       0.14696167 -0.06702956 -0.035573665 0.08107489
0000d0 24 2f 99 3c 6b e5 69 3e f5 98 05 3d ab 37 b4 bd
       0.018699236 0.22841422 0.032616574 -0.0879968
0000e0 08 f8 10 3e 64 98 99 3d 44 13 54 3d 35 4a 03 3e
       0.14157116 0.07499769 0.051776186 0.12821276
0000f0 ba 52 7a 3e 94 7d 89 3b 1c 21 50 3e 61 17 ae 3d
       0.2444562 0.0041958783 0.2032513 0.08500553
000100 9e c7 36 3e 3d ff 35 3e 03 b9 04 3e 6d a3 41 3d
       0.17849585 0.17773147 0.12961201 0.047274996
000110 a8 0b 0b 3e fc de d1 3c fb 7a 09 3d 83 91 19 be
       0.13578665 0.025619023 0.03356455 -0.14996915
000120 3d 4d 58 bc 1d 3f af 3d 92 38 39 3d d7 b5 b1 3c
       -0.013202009 0.0855696 0.045219965 0.021693153
000130 17 1e 21 3e 1c 51 c0 3d b2 c3 10 3e 0d c6 cf bd
       0.15734135 0.093904704 0.14137152 -0.10145197
000140 30 a5 71 3e dd 74 a3 bd 44 2e 10 be cf d5 0d 3d
       0.2359817 -0.07981274 -0.14080149 0.034627732
000150 0b 5f 72 3d 07 65 05 3e 4c ac 48 3d cb 64 6a 3e
       0.05917267 0.1302682 0.04899244 0.22890012
000160 df d5 08 3e 6f a8 9b bb 87 6a 75 3d d5 c5 46 bd
       0.13362835 -0.0047503035 0.059916046 -0.04852851
000170 3e f0 f9 3d 1f f4 d4 bd 32 e8 f0 bd af 88 43 bd
       0.12204026 -0.10398125 -0.11763038 -0.047737774
000180 d7 bb 5f 3e f8 1d 5f 3e 9a d1 11 bd fc d9 1e 3d
       0.21848999 0.21788776 -0.035600282 0.038782105
000190 90 ca 1d 3e 4f 91 f6 3d ef a3 37 3e cb f0 4d bb
       0.15409303 0.12039434 0.1793363 -0.0031424041
0001a0 44 f3 98 bd 43 47 9a 3e a7 6a fd bd 99 3f d3 3d
       -0.07468274 0.30132493 -0.12373858 0.10314865
0001b0 30 54 73 bd 79 b4 98 3b 2e 40 8c 3d 37 a0 c2 3d
       -0.05940646 0.004660186 0.06848179 0.09503215
0001c0 72 7e 3f 3d b3 e8 11 3d 1c ce dd 3d 5d 1f c1 bd
       0.046751447 0.03562231 0.10830328 -0.0942981
0001d0 a3 da 3a 3d 09 cb 8f 3e f9 c2 53 3d 27 e6 a7 3e
       0.045618664 0.2808459 0.051699612 0.3279278
0001e0 70 88 9f 3d 75 4c f1 bc 56 d7 24 bd 64 ba eb bd
       0.07789695 -0.029455403 -0.040244423 -0.115101606
0001f0 1c 65 bd 3d ff ad e6 bd 97 82 84 3c db a1 05 be
       0.09247801 -0.11263656 0.016175551 -0.13050024

nets.0.5.running_mean f4 [128]
000000 53 68 07 3f df 3d 07 3f 5a c5 f1 3e a2 37 1c 3f
       0.5289356 0.5282878 0.4722088 0.6102239
000010 52 f1 d4 3e 8a 37 be 3e 02 97 45 3e e2 30 cf 3e
       0.41590363 0.37151748 0.19295886 0.40466982
000020 b7 9b e5 3e 51 59 f8 3e 08 d4 21 3f 03 71 cb 3e
       0.44845363 0.48505643 0.6321416 0.3973466
000030 ea 9e f8 3e 15 58 d0 3e 91 bb 8b 3e 30 33 4e 3e
       0.48558742 0.406922 0.2729154 0.20136714
000040 bb 35 ec 3e 54 df 1d 3f e5 40 f3 3e 89 f4 de 3e
       0.46134743 0.61668897 0.47510448 0.4354594
000050 47 8b a3 3e 83 a1 8a 3e e9 eb 1e 3f 21 a4 9b 3e
       0.31942198 0.2707635 0.6207872 0.30398658
000060 84 e3 14 3f 88 b9 89 3e 21 1f 8d 3e f6 69 b8 3e
       0.5815966 0.26899362 0.27562812 0.36018342
000070 ba b7 a4 3e 56 69 f3 3e 88 83 f0 3e cd 9d c7 3e
       0.32171422 0.47541302 0.4697535 0.3898758
000080 6d 31 eb 3e e6 ea 05 3f bd 7f 02 3f 5d 1d 23 3f
       0.45936146 0.5231155 0.50976163 0.6371668
000090 3f 62 a5 3e d4 56 af 3e 82 2d e1 3e 01 0d cb 3e
       0.32301518 0.34245932 0.43980032 0.3965836
0000a0 f0 a0 1d 3f e3 3b b3 3e 20 c1 02 3f 8e b3 e0 3e
       0.61573696 0.35006627 0.51075935 0.4388699
0000b0 b9 b6 b1 3e f9 34 df 3e fb 8f 9e 3e 0c 32 b3 3e
       0.3470972 0.43595102 0.30969223 0.3499912
0000c0 eb 3a 49 3f ee a5 2d 3f 75 35 17 3f 7b fb ae 3e
       0.78605527 0.67831314 0.59065944 0.3417624
0000d0 65 5a e9 3e 6b 14 0f 3f 72 a8 c3 3e 06 f5 0d 3f
       0.45576778 0.5589053 0.3821445 0.55452
0000e0 d3 ea f8 3e ab a0 22 3f b0 92 2f 3f 07 f6 14 3f
       0.48616657 0.6352641 0.685832 0.5818791
0000f0 c8 23 e3 3e d7 4a 3f 3f 27 9f c0 3e a4 8b c6 3e
       0.44363236 0.7472357 0.37621424 0.38778412
000100 ba 70 97 3e ac 9c e4 3e 42 87 cd 3e 89 de 81 3e
       0.2957819 0.4465078 0.40142256 0.25365093
000110 9c 70 11 3f 6f 31 f2 3e 0e 17 eb 3e 23 12 17 3f
       0.56812453 0.4730334 0.45916027 0.5901205
000120 53 06 e7 3e bf 1a d1 3e 2d 1f fd 3e 4b 38 bf 3e
       0.45122012 0.40840718 0.49437848 0.37347636
000130 f7 17 80 3e 22 92 83 3e 98 47 3a 3f 17 47 03 3f
       0.25018284 0.25697428 0.72765493 0.5128035
000140 53 eb ee 3e 7f c6 20 3f 09 c9 bf 3e 5d a2 19 3f
       0.46663913 0.6280288 0.37458065 0.6001337
000150 38 a7 35 3f bd 32 ce 3e 6f 4a df 3e e7 a7 ab 3e
       0.7095828 0.40273085 0.43611476 0.33526537
000160 84 de ca 3e 3c aa 1e 3f bf af 07 3f dd e7 ad 3e
       0.3962289 0.6197851 0.5300254 0.3396596
000170 b8 eb 05 3f 17 f9 f8 3e ca f6 e8 3e 25 5e 01 3f
       0.52312803 0.4862754 0.45500785 0.5053428
000180 00 02 88 3e 7b 4c 7e 3e b2 63 cf 3e 2d 4a a6 3e
       0.26564026 0.24833862 0.4050575 0.32478467
000190 79 84 bb 3e 4d e7 75 3e eb 15 b9 3e 99 0d 21 3f
       0.36624506 0.24014015 0.36149535 0.62911373
0001a0 d1 b7 39 3f 03 18 a8 3e 52 c1 2c 3f 19 62 cf 3e
       0.72546107 0.3283082 0.67482483 0.4050453
0001b0 b0 1c 29 3f db 24 09 3f e4 b8 9d 3e 3c d0 19 3f
       0.660594 0.5357186 0.30805123 0.60083365
0001c0 a0 c6 9c 3e 5e e3 e6 3e 62 e9 1b 3f 73 44 fc 3e
       0.3062029 0.45095342 0.6090299 0.49270973
0001d0 5a 40 db 3e 54 63 b8 3e 92 6c 72 3e d7 bd 37 3f
       0.42822534 0.3601328 0.23674229 0.7177405
0001e0 b5 29 fa 3e 21 70 db 3e ed e4 fc 3e 0a 5f bc 3e
       0.48859945 0.42858985 0.49393407 0.3679126
0001f0 0c 57 ad 3e 71 3f b6 3e 1e d4 06 3f 22 57 0b 3f
       0.33855474 0.35595277 0.52667415 0.5442983

nets.0.5.running_var f4 [128]
000000 05 e4 d7 3e 64 a4 cc 3e cb 84 0f 3f b3 e9 29 3f
       0.42166153 0.3996917 0.56062 0.6637222
000010 e8 cc ba 3e 44 04 a9 3e 72 f6 85 3e f6 80 0f 3f
       0.36484456 0.33011067 0.26164585 0.56056154
000020 f8 c0 1d 3f 5e a8 16 3f 4c 31 4a 3f 40 ea 79 3e
       0.6162257 0.5885066 0.7898147 0.24405766
000030 11 50 10 3f ce c1 eb 3e e1 27 59 3e 2c 71 63 3e
       0.5637217 0.460463 0.21206619 0.2221114
000040 4f f4 22 3f 65 38 7a 3f af 9d 8e 3e b6 56 41 3f
       0.63654035 0.977423 0.27854678 0.75522935
000050 e7 70 c5 3e 4f 38 78 3e 41 c7 97 3f aa 5a 9b 3e
       0.385627 0.2424023 1.1857682 0.3034261
000060 a6 f6 77 3f 4a bf de 3e b2 4a 82 3e 45 aa f7 3e
       0.9686073 0.43505317 0.25447613 0.48372093
000070 08 ee 86 3e 3a 00 7e 3f 64 78 fb 3e af 30 d7 3e
       0.26353478 0.99219096 0.49115288 0.4202933
000080 2c f2 c0 3e 59 ac e4 3e 0d 14 50 3f be 06 86 3f
       0.37684762 0.4466274 0.81280595 1.0470808
000090 17 d6 d9 3e e6 1f e7 3e cb 4a 4e 3f 8c cf 85 3e
       0.4254615 0.45141524 0.80582875 0.26134908
0000a0 5a be a2 3f b8 2f 38 3e ec e6 cd 3e f8 b2 cd 3e
       1.2714341 0.17986953 0.40215242 0.40175605
0000b0 e3 39 bf 3e ab 1a 27 3f a9 4b 1b 3e 72 17 ff 3e
       0.37348852 0.6527507 0.15165581 0.49822575
0000c0 6a 92 87 3f 2a 58 33 3f 37 c7 2f 3f 3e fa 65 3e
       1.0591557 0.700564 0.6866335 0.22458741
0000d0 65 7b f2 3e 8d 6b 3f 3f 72 b6 1a 3f 92 65 e1 3e
       0.47359768 0.74773484 0.6043464 0.44022804
0000e0 7e 72 2f 3f f6 38 08 3f 4b bc 54 3f 13 0f 07 3f
       0.68534076 0.53211915 0.8309981 0.52757376
0000f0 0b 45 eb 3e 0d 18 39 3f 21 5d 24 3f 08 ac b5 3e
       0.45951113 0.72302324 0.64204603 0.35482812
000100 a9 da 94 3e 82 59 30 3f 15 ea c1 3e e8 d4 a6 3e
       0.29073074 0.6888658 0.37873903 0.3258431
000110 92 8d 17 3f c4 a4 3e 3f a5 08 13 3f 92 f9 93 3f
       0.59200394 0.7447016 0.57435066 1.1560538
000120 7d 3e f5 3e ba 82 d8 3e 59 08 19 3f b2 39 4f 3f
       0.47899237 0.42287236 0.5977836 0.8094741
000130 f7 56 97 3e a9 9e 69 3e 5c 73 b4 3f 51 51 0a 3f
       0.29558536 0.2281443 1.4097705 0.5403033
000140 58 8a 05 3f 7e 72 60 3f 30 b2 86 3e 02 9c 08 3f
       0.5216422 0.876747 0.2630782 0.5336305
000150 0f 1e 8b 3f 36 30 8f 3e 56 b1 6e 3f 53 e9 c8 3e
       1.0868548 0.2796647 0.93239343 0.39240512
000160 19 14 1b 3f 79 40 dd 3e 89 4f 48 3f 0d 6d f3 3e
       0.6057754 0.4321325 0.7824636 0.47544137
000170 f8 5b 2b 3f 8c e7 5b 3f 34 5b b7 3e f1 ab 47 3f
       0.6693721 0.8590019 0.3581177 0.77996737
000180 3f d9 80 3e a1 6a c9 3e 74 94 07 3f 02 64 8b 3e
       0.25165746 0.39339164 0.52960896 0.27224737
000190 08 d6 df 3e 8d 6b 69 3e 16 35 fe 3e 59 94 3c 3f
       0.4371798 0.22794934 0.49649876 0.7366386
0001a0 d5 b2 8f 3f 88 a0 d6 3e cf 97 22 3f e2 bd c9 3e
       1.122645 0.4191935 0.6351289 0.39402682
0001b0 7a 1e 97 3f fa 18 4c 3f ea 76 83 3e ad ad 61 3f
       1.1806176 0.7972561 0.25676662 0.88155633
0001c0 1d f4 ce 3e 38 5a ea 3e 45 83 5d 3f 6c 25 15 3f
       0.4042062 0.45771956 0.86528426 0.58260226
0001d0 a6 64 01 3f d4 3b e8 3e 66 b7 dd 3e 8e 7b 92 3f
       0.505442 0.45358145 0.43303984 1.1443956
0001e0 e9 ea 38 3f 46 fd 1c 3f d9 ee 38 3f 5e 25 7d 3e
       0.72233444 0.61323965 0.7223945 0.24721286
0001f0 f3 4c a1 3e 31 76 a0 3e 8f 61 f0 3e 91 55 23 3f
       0.3150402 0.31340173 0.4694943 0.6380244
