checkpoint/fk_model_dg5f_right.pth (torch, 749728 bytes, 100 tensors)

nets.0.0.weight f4 [128, 4]
0	0x3e1a1c9f	0.1504998
1	0xbccc297e	-0.024922129
2	0xbed865c8	-0.42265153
3	0xbe0c145e	-0.13679644
4	0xb90aa735	-0.00013222995
5	0x3e5c0bd2	0.21488884
6	0xbe8123c0	-0.25222588
7	0xbe98c884	-0.2984048
8	0xbec2eb59	-0.3807018
9	0xbb0811b5	-0.0020762507
10	0xbe84bfa8	-0.25927472
11	0xbea70978	-0.32624412
12	0xbeb953f4	-0.36196864
13	0x3ea3d311	0.31996968
14	0x3db7541c	0.089515895
15	0xbb770b0c	-0.0037695793
16	0xbd86d594	-0.065837055
17	0x3f2a2d4d	0.66475374
18	0x3e0b4f06	0.13604364
19	0x3e22d562	0.15901712
20	0x3eebc802	0.4605103
21	0x3ed4f3ce	0.41592258
22	0x3da94dde	0.08266805
23	0xbe588867	-0.21145783
24	0xbe370e7c	-0.17876619
25	0x3e9bc273	0.3042179
26	0xbd13fc60	-0.036129355
27	0x3e801539	0.25016192
28	0x3e618b58	0.22025812
29	0x3d8172fa	0.06320758
30	0x3e806ea2	0.25084406
31	0x3e968b11	0.29402974
32	0x3e63cf6b	0.22247092
33	0xbe4aea59	-0.19815959
34	0x3b48d54a	0.0030644708
35	0xbd15a8fe	-0.036538117
36	0x3dadde24	0.084896356
37	0xbcd9180e	-0.026500728
38	0xbea8ae86	-0.3294565
39	0xbe713371	-0.2355478
40	0x3dcb2bb8	0.09920448
41	0xbf277cdc	-0.65424895
42	0x3e17577d	0.14779468
43	0xba2d6c45	-0.00066155597
44	0x3e60f9da	0.21970311
45	0xbdf4b8dc	-0.11949322
46	0xbe65eb33	-0.22453003
47	0x3dc106e7	0.09425145
48	0x3e0901aa	0.13379541
49	0x3e5261d6	0.20545134
50	0xbdb73f0d	-0.08947573
51	0x3e36191f	0.1778302
52	0xbeae9944	-0.34101307
53	0xbe388e96	-0.18023142
54	0xbe9dce2d	-0.30821362
55	0xbe8cbd05	-0.2748796
56	0x3e0dc2cb	0.13843839
57	0x3ed18add	0.40926257
58	0xbe652684	-0.22377974
59	0xbe1f8b9d	-0.15580602
60	0xbe90e315	-0.2829825
61	0x3e2129d7	0.15738617
62	0x3f024e7b	0.50901
63	0x3e4926e5	0.19643743
64	0xbdfa99ab	-0.12236341
65	0x3f0565c8	0.5210843
66	0x3f001965	0.5003875
67	0x3ea65801	0.32489017
68	0x3e90b57d	0.28263465
69	0x3ebdd33b	0.3707522
70	0xbebe4906	-0.37165087
71	0x3e9604af	0.29300448
72	0x3e81870f	0.25298354
73	0x3ea8dbdc	0.3298024
74	0xbe1120bd	-0.14172645
75	0x3e9a3143	0.3011571
76	0xbeb73a5c	-0.35786712
77	0x3f207bfb	0.6268918
78	0xbea70627	-0.3262188
79	0x3e542e0f	0.20720695
80	0x3ecde714	0.4021536
81	0x3ef1945a	0.47183496
82	0xbe506668	-0.20351565
83	0xbe592377	-0.21204935
84	0x3e5c0d70	0.21489501
85	0xbef059bd	-0.46943465
86	0xbdc0ebcb	-0.09419974
87	0xbd821d1b	-0.06353208
88	0x3e792518	0.24330556
89	0xbf3458b6	-0.7044786
90	0x3ddc34b7	0.10752242
91	0xbe077947	-0.13229857
92	0x3e369598	0.17830503
93	0xbe3c3acb	-0.18381803
94	0x3e015964	0.12631756
95	0x3de0fbc8	0.109855235
96	0x3ef3de5e	0.4763059
97	0xbda440af	-0.0802015
98	0xbe949759	-0.2902172
99	0x3e5426f4	0.20717984
100	0x3ea85668	0.32878423
101	0x3f02aa14	0.5104077
102	0xbd471b50	-0.04861003
103	0x3e88210f	0.26587722
104	0xbe38051e	-0.17970702
105	0x3ed5df10	0.41771746
106	0xbddfd12d	-0.10928569
107	0x3e98d3b7	0.29849026
108	0x3d34991c	0.04409133
109	0x3ed48c60	0.41513348
110	0x3e2ab848	0.1667186
111	0x3dbc7728	0.09202415
112	0xbe44da8e	-0.19223997
113	0xbe9abd8f	-0.30222747
114	0xbe0b11d0	-0.13581014
115	0xbd57a372	-0.052646108
116	0xbdd23934	-0.10264817
117	0x3f008808	0.5020757
118	0x3eed1e38	0.46312118
119	0x3e80c827	0.25152704
120	0xbe437ee8	-0.1909138
121	0x3eb2cbeb	0.34921202
122	0xbefbde6b	-0.4919313
123	0xbe5f0506	-0.2177926
124	0x3d7b252d	0.06131475
125	0xbe08749f	-0.13325737
126	0x3ecbd986	0.39814395
127	0xbe29c9a7	-0.1658083
128	0x3ebfd533	0.37467346
129	0xbf2d58c6	-0.6771358
130	0xbd22e10e	-0.03976541
131	0xbe0462f9	-0.1292838
132	0xbd9a3b7c	-0.07530877
133	0xbe6a3576	-0.22871956
134	0x3de7fc83	0.1132746
135	0x3c6abe8d	0.014327657
136	0xbecf7164	-0.40516198
137	0x3eceba0b	0.40376315
138	0xbe428d4c	-0.18999213
139	0x3c382097	0.011238239
140	0x3d87b2f4	0.066259295
141	0xbeeba92e	-0.4602751
142	0xbde7079f	-0.112807505
143	0xbe179aee	-0.14805195
144	0x3e70ab02	0.23502734
145	0x3f112c4f	0.56708235
146	0xbeaf94b1	-0.3429313
147	0x3df52146	0.11969237
148	0xbe0c4c68	-0.13701022
149	0xbf12bd8c	-0.57320476
150	0xbeb28a99	-0.34871367
151	0x3eafeb81	0.34359363
152	0x3e79746d	0.24360819
153	0x3df12516	0.11774652
154	0x3e9a8a45	0.30183616
155	0xbe4f74a5	-0.2025934
156	0x3eead508	0.45865655
157	0x3e9e41d0	0.30909586
158	0xbdadef46	-0.084929034
159	0x3ee3d831	0.44500878
160	0xbec19364	-0.37807763
161	0x3f0e7770	0.55651
162	0xbcbf814b	-0.023377081
163	0x3ee37dbb	0.44431862
164	0xbd17f50b	-0.037098926
165	0xbe5598e5	-0.20859106
166	0xbeb9b05a	-0.36267358
167	0xbe8a0171	-0.26954225
168	0xbd82c7e4	-0.06385782
169	0x3d1e3379	0.038623307
170	0x3e97e178	0.29664207
171	0x3e6e48ee	0.23270008
172	0x3d5d9d10	0.054104865
173	0xbeb535a5	-0.3539249
174	0x3e914735	0.2837464
175	0x3e10f44c	0.14155692
176	0xbe7be0ae	-0.24597427
177	0xbf00c102	-0.50294507
178	0x3e7e390e	0.24826452
179	0x3e3d1e6c	0.18468636
180	0xbe007b72	-0.1254709
181	0x3ec4a90c	0.38410223
182	0xbea64023	-0.32470807
183	0xbe962bd4	-0.29330313
184	0xbe3ad3b3	-0.1824482
185	0x3e8be376	0.27321976
186	0xbe73e123	-0.23816352
187	0xbe6a3cd7	-0.22874771
188	0x3eb272b2	0.3485313
189	0xbe7d47c9	-0.24734415
190	0xbd17c7c5	-0.03705575
191	0xbcaac372	-0.020845149
192	0xbe9a8f18	-0.30187297
193	0xbebe9bd3	-0.3722826
194	0xbf039a5a	-0.51407397
195	0xbe06c8d0	-0.13162541
196	0x3e868367	0.26272127
197	0xbe81f67c	-0.25383365
198	0x3e8dd12a	0.27698642
199	0xbe805cd9	-0.25070837
200	0x3dceb88c	0.10093793
201	0x3df0b80e	0.11753856
202	0x3cb9e7eb	0.022693595
203	0x3dd11a5d	0.102101065
204	0xbe1403b8	-0.14454544
205	0x3e6158c6	0.2200652
206	0x3e810608	0.25199914
207	0x3e81e7f5	0.25372282
208	0x3e62df13	0.22155409
209	0x3ed93a76	0.42427415
210	0x3eacf2d7	0.33779022
211	0x3e0d0150	0.13770032
212	0xbe425071	-0.18975998
213	0x3efb641c	0.49099815
214	0xbec87b24	-0.3915645
215	0xbebb3be3	-0.36569127
216	0xbe23182e	-0.15927193
217	0x3e96028d	0.2929882
218	0xbe7624cc	-0.24037474
219	0xbe751a60	-0.23935843
220	0x3dd54365	0.10413245
221	0x3ea0b4bb	0.31387886
222	0xbe4c90f7	-0.19977175
223	0x3d71fa1b	0.05907641
224	0xbd82a778	-0.063795984
225	0x3f009385	0.50225097
226	0xbe9d3b7c	-0.30709445
227	0xbeb9a67a	-0.36259824
228	0xbe9e5715	-0.30925813
229	0x3efb239c	0.49050605
230	0xbe77fd37	-0.24217688
231	0xbe4ae3d2	-0.19813469
232	0xbeb09309	-0.3448718
233	0xbeec2c47	-0.4612753
234	0x3e6e97b0	0.23300052
235	0xbdf535b0	-0.11973131
236	0xbddd3688	-0.10801417
237	0xbf095dee	-0.5365895
238	0x3cf4cce7	0.029882861
239	0x3ea949c3	0.33064088
240	0xbea3bb79	-0.31978968
241	0x3da9e18f	0.08294975
242	0xbe8a26a7	-0.26982614
243	0xbe7281ae	-0.23682281
244	0x3d64eb5e	0.055888526
245	0x3eb6beca	0.35692436
246	0xbedf66d8	-0.4363315
247	0xbeb8bf55	-0.36083475
248	0x3bfd5b1f	0.0077318097
249	0xbeb0cf12	-0.34532982
250	0xbda688d6	-0.08131568
251	0x3d9bb6e9	0.07603247
252	0xbe984484	-0.29739773
253	0x3e13272b	0.1437041
254	0x3ec42c62	0.3831511
255	0xbedef226	-0.4354412

nets.0.0.bias f4 [128]
0	0x3ecc228b	0.39870104
1	0x3ea103df	0.31448266
2	0x3e84e786	0.25957888
3	0xbdcf2846	-0.101151034
4	0xbe97cfdc	-0.29650772
5	0xbd334c36	-0.043773852
6	0xbe02fd8d	-0.12792034
7	0x3ee7c645	0.45268455
8	0x3ee6cd59	0.45078543
9	0x3efb920e	0.49134868
10	0xbd8a937d	-0.067664124
11	0x3f15a43d	0.5845373
12	0xbe8f4ce9	-0.27988365
13	0xbec315e2	-0.38102633
14	0x3e3b39cb	0.18283765
15	0xbea434f6	-0.32071656
16	0xbe8f73ba	-0.2801798
17	0x3e9d1e8d	0.3068737
18	0xbefd719b	-0.49500737
19	0xbcef468c	-0.029208444
20	0xbeb455d0	-0.3522172
21	0xbe764c3c	-0.24052519
22	0xbecacf70	-0.39611387
23	0x3e65cd92	0.224417
24	0x3e18e60b	0.14931504
25	0xbec278a2	-0.3798266
26	0xbebe91d1	-0.37220624
27	0x3e86b609	0.26310757
28	0x3e3fe744	0.18740565
29	0x3ce6d620	0.028178275
30	0x3e8a2bc8	0.26986527
31	0x3edf26d8	0.43584323
32	0xbeee85c9	-0.46586445
33	0x3e3e5fd2	0.1859124
34	0x3f136e80	0.57590485
35	0xbdcddeee	-0.10052286
36	0x3db11737	0.08647006
37	0xbe9af955	-0.3026835
38	0x3e8b9f5a	0.27270013
39	0x3e50b598	0.20381773
40	0xbc3d5416	-0.011555692
41	0x3dba2443	0.090889476
42	0xbbd168f0	-0.0063906834
43	0x3e9a6da9	0.3016179
44	0xbd8c97bd	-0.06864879
45	0xbe8cfecb	-0.27538142
46	0xbec7463b	-0.3892077
47	0x3e3eb784	0.18624693
48	0xbd28500c	-0.041091964
49	0x3f08c309	0.534226
50	0xbdee5270	-0.116368175
51	0x3eab0e28	0.33409238
52	0xbe8faf97	-0.28063652
53	0xbeff079d	-0.49810496
54	0xbeb54e7d	-0.35411444
55	0xbdf885b5	-0.121348776
56	0x3da2af01	0.079435356
57	0x3e0086b8	0.12551391
58	0x3e0a81e5	0.13526113
59	0x3e6278e3	0.22116427
60	0xbe6013b4	-0.21882516
61	0xbe4ea222	-0.20179036
62	0xbeff0012	-0.4980474
63	0x3eb1f626	0.3475811
64	0x3d065515	0.032795984
65	0x3e3206f6	0.17385468
66	0xbec51143	-0.38489732
67	0xbedbc14c	-0.4292091
68	0xbd7e4056	-0.062073074
69	0x3e2447e9	0.16043057
70	0x3ec4c2c5	0.38429847
71	0xbeb7cbf1	-0.35897782
72	0xbef99f86	-0.4875452
73	0x3ec2d230	0.38050985
74	0xbeb3d7b8	-0.35125518
75	0xbd3261c7	-0.04355028
76	0xbebb13ec	-0.36538637
77	0x3ec88f99	0.39172056
78	0x3ebd87ec	0.37017763
79	0x3e9d048d	0.30667534
80	0xbefc5cd5	-0.49289575
81	0xbecbc8ec	-0.3980173
82	0x3e8b271e	0.27178282
83	0x3c7d8d89	0.015475639
84	0xbe703f77	-0.2346171
85	0x3eabcfc1	0.3355694
86	0x3e8b411c	0.27198112
87	0x3ee0c3cb	0.43899378
88	0xbeb9d504	-0.3629533
89	0x3ee2e66a	0.44316417
90	0xbec63c8b	-0.38718066
91	0x3d2e4f28	0.042555958
92	0xbe99d6d7	-0.30046722
93	0xbe37b253	-0.17939119
94	0x3e6a0bdb	0.22856085
95	0x3e50b323	0.20380835
96	0x3a6f9e0e	0.00091406784
97	0x3e39d6f0	0.18148398
98	0x3dbb27a9	0.09138424
99	0x3e85972c	0.26091897
100	0xbe601835	-0.21884234
101	0xbe945430	-0.2897048
102	0xbe4bd311	-0.19904734
103	0x3e9a7b62	0.3017226
104	0xbe08bae2	-0.1335254
105	0xbe57ee35	-0.21086963
106	0xbe19c650	-0.15017056
107	0x3e36384d	0.17794915
108	0x3f1f8df6	0.6232599
109	0x3e68ef97	0.22747646
110	0xbe66f73a	-0.22555247
111	0xbf0085c5	-0.50204116
112	0xbe379133	-0.17926483
113	0x3e55e7f7	0.20889269
114	0x3db36c9b	0.08760949
115	0xbe938ffd	-0.28820792
116	0x3e97f33b	0.29677758
117	0x3d707936	0.058709346
118	0xbd00a130	-0.03140372
119	0x3e826f63	0.25475606
120	0xbea58763	-0.32329854
121	0xbda7b3a9	-0.08188564
122	0x3e3d3f23	0.18481116
123	0x3ccc656b	0.024950704
124	0x3e0f0628	0.13967192
125	0xbef49258	-0.477679
126	0x3ebbae3f	0.36656377
127	0x3e824c97	0.25449058

nets.0.2.weight f4 [128]
0	0x3f82855c	1.0196948
1	0x3f8458f2	1.0339644
2	0x3f798173	0.9746315
3	0x3f749b4b	0.9554946
4	0x3f7c0509	0.98445183
5	0x3f63ad5c	0.889364
6	0x3f614e76	0.88010347
7	0x3f7546ea	0.9581133
8	0x3f7fc9cf	0.9991731
9	0x3f85b1b6	1.0444858
10	0x3f90a6a4	1.1300855
11	0x3f70218c	0.9380119
12	0x3f8c4635	1.0958925
13	0x3f6274f0	0.8845968
14	0x3f81a6c6	1.012902
15	0x3f6188bb	0.8809926
16	0x3f811544	1.0084615
17	0x3f6d3877	0.92664284
18	0x3f9eba98	1.2400694
19	0x3f6df0ad	0.9294537
20	0x3f4cbfc3	0.79980105
21	0x3f957140	1.1675186
22	0x3f823da4	1.0175061
23	0x3f8574f1	1.0426313
24	0x3f6831a2	0.90700734
25	0x3f8a8138	1.0820684
26	0x3f5d895b	0.8653771
27	0x3f8a2193	1.0791496
28	0x3f7cc9f4	0.98745656
29	0x3f80ee7f	1.0072783
30	0x3f82eb82	1.0228121
31	0x3f63af5b	0.88939446
32	0x3f8f8e99	1.1215392
33	0x3f8037ca	1.0017025
34	0x3f6f9024	0.93579316
35	0x3f8d5915	1.1042811
36	0x3f72893e	0.94740665
37	0x3f39f23e	0.7263526
38	0x3f5aa437	0.8540682
39	0x3f6227bd	0.88341886
40	0x3f613faf	0.879878
41	0x3f81b0fc	1.0132136
42	0x3f8409e3	1.0315517
43	0x3f8cf520	1.1012306
44	0x3f83e38a	1.0303814
45	0x3f85a714	1.0441613
46	0x3f8f5c3e	1.1200025
47	0x3f7ea6f1	0.9947348
48	0x3f72d71f	0.948595
49	0x3f68fe68	0.91013193
50	0x3f66b80e	0.90124595
51	0x3f80a756	1.0051067
52	0x3f678343	0.90434664
53	0x3f8fdf71	1.1240064
54	0x3f8aeace	1.0852907
55	0x3f7d8a82	0.9903947
56	0x3f7f1757	0.9964499
57	0x3f860020	1.0468788
58	0x3f72212b	0.9458186
59	0x3f71364a	0.94223464
60	0x3f75ce75	0.96018153
61	0x3f808ea0	1.0043526
62	0x3f8722cb	1.0557493
63	0x3f6aa1d5	0.91653186
64	0x3f8d852a	1.1056263
65	0x3f837c2e	1.0272272
66	0x3f892f4f	1.0717562
67	0x3f0dc32a	0.5537592
68	0x3f42af2a	0.7604853
69	0x3f693fc0	0.911129
70	0x3f80eb94	1.0071893
71	0x3f853ef8	1.0409842
72	0x3f9503f5	1.1641833
73	0x3f7d307e	0.9890212
74	0x3f6717a5	0.90270454
75	0x3f796519	0.9741989
76	0x3f8e3085	1.1108557
77	0x3f71e59f	0.94491
78	0x3f7be193	0.98391074
79	0x3f82565e	1.0182607
80	0x3f67fd1c	0.9062059
81	0x3f16240f	0.5864877
82	0x3f85f28f	1.0464648
83	0x3f690903	0.91029376
84	0x3f572bf6	0.84051454
85	0x3f862f6e	1.0483224
86	0x3f7f02f0	0.9961386
87	0x3f71c100	0.9443512
88	0x3f6a5ad0	0.9154482
89	0x3f73abbb	0.95183915
90	0x3f547d09	0.8300329
91	0x3f8217d4	1.0163522
92	0x3f4bbe02	0.79586804
93	0x3f8cdeb8	1.1005468
94	0x3f834ca8	1.0257769
95	0x3f7b2d88	0.9811635
96	0x3f8957a1	1.0729867
97	0x3f7925f5	0.9732354
98	0x3f5555cb	0.83334035
99	0x3f7e279f	0.99279207
100	0x3f836b47	1.0267113
101	0x3f88a1cf	1.067438
102	0x3f697ba2	0.91204274
103	0x3f764456	0.9619802
104	0x3f748c54	0.95526624
105	0x3f76e7ec	0.96447635
106	0x3f830edc	1.023891
107	0x3f770bdd	0.96502477
108	0x3f71d24c	0.9446151
109	0x3f817e1a	1.0116608
110	0x3f803985	1.0017554
111	0x3f2f9566	0.6858734
112	0x3f7f9d04	0.9984896
113	0x3f85eee7	1.0463532
114	0x3f796826	0.9742454
115	0x3f88d6ee	1.0690591
116	0x3f7f4c9b	0.99726266
117	0x3f442bdf	0.7662944
118	0x3f66add7	0.9010901
119	0x3f83f5aa	1.0309346
120	0x3f8087aa	1.0041401
121	0x3f62275c	0.8834131
122	0x3f864039	1.0488349
123	0x3f8dc138	1.1074591
124	0x3f7afb50	0.9803972
125	0x3f5e6b16	0.8688215
126	0x3f6992a7	0.912394
127	0x3f729b3f	0.94768137

nets.0.2.bias f4 [128]
0	0x3da4a85a	0.08039923
1	0xbda9c07d	-0.08288667
2	0x3d71af6a	0.05900518
3	0x3da27707	0.07932859
4	0x3d1dfc0b	0.038570445
5	0xbde0e278	-0.109806955
6	0x3d2cea12	0.042215414
7	0x3d6c9b99	0.057765577
8	0x3d4f6bb2	0.050639816
9	0x3cd02169	0.025406556
10	0x3dda4353	0.10657372
11	0x3c242e77	0.010020844
12	0x3c6ba164	0.01438174
13	0xbbacfa68	-0.005278874
14	0x3d3411b5	0.0439622
15	0x3c281c97	0.010260723
16	0x3ce9a767	0.028522206
17	0xbe10e608	-0.1415025
18	0xbe26b2ef	-0.16279195
19	0x3ce8e1f7	0.028428061
20	0xbdb1eb6b	-0.086874805
21	0x3e09fe25	0.13475855
22	0x3d61e0e7	0.055146124
23	0x3da3ccb6	0.0799803
24	0x3c87a62b	0.016558727
25	0xbda00d37	-0.078150205
26	0x3c2b29c8	0.010446973
27	0x3decd6d3	0.11564412
28	0x3ddc15a3	0.107463144
29	0xbddc96db	-0.10770961
30	0xbd19b2fc	-0.03752421
31	0x3d2838b1	0.04106969
32	0x3daeca06	0.08534627
33	0x3bd156b4	0.0063885096
34	0x3cc2dcef	0.02378699
35	0x3deab11f	0.114595644
36	0xbd806e96	-0.062710926
37	0x3d08c615	0.03339203
38	0xbd8600e4	-0.065431386
39	0x3d7f863b	0.06238387
40	0xbbf7e5ea	-0.0075652497
41	0x3d9fe5f9	0.07807536
42	0x3d204d4b	0.039136212
43	0xbd7eac5d	-0.062176097
44	0xbcd1c3bc	-0.025606029
45	0x3d1b64f6	0.03793808
46	0x3b9691fd	0.00459504
47	0x3cc015fe	0.023447987
48	0xbdeb9bcb	-0.115043245
49	0xb917f25d	-0.0001449077
50	0xbdd6b86c	-0.104843944
51	0xbca60dde	-0.020270284
52	0xbd23262e	-0.039831333
53	0x3d3a548c	0.045490786
54	0x3d4c5b67	0.049891856
55	0xbd43f7ba	-0.047843672
56	0x3db532cf	0.088475816
57	0x3c957726	0.018245291
58	0x3dded13f	0.10879754
59	0x3c5b612d	0.013389868
60	0x3a8886ad	0.0010416113
61	0x3e36d7de	0.17855784
62	0xbcc2762c	-0.02373799
63	0xbdab98e3	-0.0837877
64	0x3d46b3b3	0.04851122
65	0xbd5558fb	-0.05208681
66	0x3c75ae30	0.014995143
67	0x3ba3d88c	0.0050001796
68	0xbd700b3c	-0.058604464
69	0x3c4dfec4	0.012572948
70	0xbdf16c86	-0.11788277
71	0xbc26eaf8	-0.010187857
72	0xbcbb4591	-0.02286032
73	0xbd947fcd	-0.072509386
74	0x3e041c3b	0.12901394
75	0xbc13ede7	-0.009028888
76	0xbdd39ca4	-0.10332611
77	0x3d4a62d6	0.049410664
78	0x3daafcd5	0.08349005
79	0xbc62eb40	-0.013850033
80	0xbdee3470	-0.116310954
81	0xbcc23e16	-0.023711246
82	0xbc78e886	-0.015192157
83	0xbe008c4e	-0.12553522
84	0xbc970ca5	-0.018438647
85	0xbb4ccf94	-0.0031251656
86	0x3dddebbe	0.1083598
87	0xbd476a90	-0.04868561
88	0x3db50413	0.08838668
89	0x3c32a995	0.010904689
90	0xbb99656c	-0.00468128
91	0x3dc01f19	0.093809314
92	0xbda18f0e	-0.07888614
93	0x3d3b0da0	0.04566729
94	0x3da594c2	0.08085014
95	0xbc5b516e	-0.013386114
96	0x3d9d9723	0.07694843
97	0xbbb790bf	-0.005601972
98	0xbbaea179	-0.0053293076
99	0xba7f41d4	-0.0009737287
100	0xbbf00e03	-0.007325889
101	0xbe1bccab	-0.15214793
102	0xbc159f68	-0.009132244
103	0xbcb22ba8	-0.021749333
104	0x3d2e06c0	0.042486906
105	0xbdb2f95e	-0.08738969
106	0xbd1825d0	-0.037145436
107	0x3cdcc0f8	0.026947483
108	0xbcd7c160	-0.026337326
109	0x3d0a24ab	0.033726376
110	0x3bc5b334	0.0060333256
111	0xbda974df	-0.082742445
112	0x3d37430e	0.044741683
113	0xbde8a7f4	-0.113601595
114	0x3d90f498	0.070779026
115	0xbc981fe2	-0.01856989
116	0xbdea04f4	-0.11426726
117	0x3dc677ba	0.09690805
118	0xbd784e8d	-0.060621787
119	0xbc3a674d	-0.011377168
120	0x3cd2c65b	0.025729349
121	0x3d3d5d10	0.04623133
122	0xbdbe7066	-0.09298782
123	0x3dbba5e8	0.091625035
124	0x3ddc8004	0.107666045
125	0xbcbd9ee2	-0.02314705
126	0x3d51d015	0.051223833
127	0xbb1641d5	-0.0022927423

nets.0.2.running_mean f4 [128]
0	0x3ed1792d	0.40912762
1	0x3eaae9c5	0.33381477
2	0x3e9e7a4a	0.30952674
3	0x3d967476	0.07346432
4	0x3d5f80d8	0.054566234
5	0x3e04e749	0.12978853
6	0x3d4acd02	0.049511917
7	0x3ee51f5b	0.44750485
8	0x3ee39081	0.44446185
9	0x3efe2fbe	0.496458
10	0x3e01d2a9	0.12678017
11	0x3f152f8a	0.58275664
12	0x3aa3c921	0.0012495854
13	0x3c8da4e4	0.01729054
14	0x3e715daa	0.23570886
15	0x3d11ad59	0.035565708
16	0x3d9e2c14	0.07723251
17	0x3eb6a879	0.3567541
18	0x3a2867bb	0.00064241485
19	0x3e3aa658	0.18227518
20	0x3d130548	0.03589371
21	0x3d072214	0.032991484
22	0x3d1438be	0.036186926
23	0x3e672252	0.22571686
24	0x3e652f07	0.22381221
25	0x3cde2475	0.027116993
26	0x3c7720cb	0.015083502
27	0x3e92823f	0.28614995
28	0x3e5bee77	0.21477686
29	0x3e3f1886	0.18661699
30	0x3eac3aeb	0.336387
31	0x3edc0089	0.42969158
32	0x3cdd3f8d	0.027007842
33	0x3e4274ca	0.18989864
34	0x3f18a31b	0.5962388
35	0x3d987aac	0.07445273
36	0x3e5e705e	0.21722552
37	0x3d870102	0.06591989
38	0x3e921c29	0.2853711
39	0x3e925b7f	0.2858543
40	0x3e3dea96	0.18546519
41	0x3e309ffd	0.1724853
42	0x3dace319	0.08441753
43	0x3e9f1b33	0.3107544
44	0x3de71b5b	0.112845145
45	0x3d29f1cc	0.04149036
46	0x3bb81d5d	0.0056187348
47	0x3e59508d	0.21222134
48	0x3e1dfbf9	0.15428151
49	0x3f06bfa2	0.5263616
50	0x3bcc603d	0.0062370584
51	0x3eb064fc	0.34452045
52	0x3d1d31d1	0.038377587
53	0x3cc328e3	0.023823207
54	0x3c277914	0.010221738
55	0x3d2afbac	0.04174392
56	0x3e57fe0b	0.21093003
57	0x3e6eb5df	0.23311566
58	0x3e62e834	0.22158891
59	0x3e8fe5a2	0.28104883
60	0x3d1716be	0.036886923
61	0x3d9a7524	0.07541874
62	0xbba42101	-0.005008817
63	0x3ec72ecc	0.3890289
64	0x3e229a6b	0.15879218
65	0x3e49343e	0.19648835
66	0xbb7aaf3c	-0.003825142
67	0xba7df345	-0.0009687434
68	0x3e13f6ec	0.14449662
69	0x3e558a52	0.20853546
70	0x3ed9b2c9	0.42519215
71	0x3d5e5179	0.054276917
72	0x3b92ce46	0.004480156
73	0x3ec6d97b	0.388378
74	0x3c84a53c	0.016192071
75	0x3e03515f	0.1282401
76	0x39b3cade	0.00034292688
77	0x3ed337e9	0.41253594
78	0x3ebae2f8	0.36501288
79	0x3eacba17	0.33735725
80	0xbba20459	-0.004944366
81	0x3cefeb70	0.02928707
82	0x3e9ee00b	0.31030306
83	0x3dab2385	0.08356384
84	0x3c2a41fa	0.010391707
85	0x3eb2c98f	0.34919402
86	0x3e8e930e	0.2784657
87	0x3ee540fc	0.44776142
88	0x3b8e07c0	0.00433442
89	0x3ee3d74b	0.44500193
90	0x3cae9e04	0.021315582
91	0x3e0b4b87	0.1360303
92	0x3c4e573a	0.012594039
93	0x3db2e3c2	0.087348476
94	0x3e72457a	0.23659316
95	0x3e52868d	0.2055914
96	0x3e18624c	0.14881247
97	0x3e43d777	0.19125162
98	0x3e1ac6f3	0.15114956
99	0x3ea6cbe6	0.32577437
100	0x3d13555e	0.035970084
101	0x3a06577e	0.00051247317
102	0x3da3b33a	0.07993169
103	0x3e987602	0.29777533
104	0x3d24188d	0.040062476
105	0x3d7b3cb4	0.061337188
106	0x3de44f62	0.111479536
107	0x3e5b59a3	0.21420912
108	0x3f1d0d9f	0.6134891
109	0x3e90dd67	0.28293917
110	0x3d1ef2ca	0.03880576
111	0x3d05dcd8	0.032681316
112	0x3d2375ea	0.039907373
113	0x3e89d7f0	0.2692256
114	0x3e388c88	0.18022358
115	0x3cc0922b	0.023507198
116	0x3ea3ee22	0.32017618
117	0x3e345acd	0.17612763
118	0x3d9ebe62	0.077511564
119	0x3ea85c54	0.3288294
120	0x3d561c69	0.052273188
121	0x3dd11513	0.10209098
122	0x3e8ab406	0.27090472
123	0x3dec3fdf	0.1153562
124	0x3e200034	0.15625077
125	0x3ca171e9	0.019707637
126	0x3ec79c8b	0.3898662
127	0x3ea366ca	0.3191436

nets.0.2.running_var f4 [128]
0	0x3d896c85	0.067101516
1	0x3d631433	0.055439185
2	0x3d9974a9	0.07492954
3	0x3c8b4870	0.017002314
4	0x3c6f1d40	0.014594376
5	0x3d2732c4	0.0408199
6	0x3c26a708	0.010171659
7	0x3d83d803	0.06437685
8	0x3cf1330d	0.029443288
9	0x3d65b1c2	0.056077726
10	0x3d14fbd5	0.03637298
11	0x3d265296	0.040606104
12	0x39f4f133	0.00046719014
13	0x3ba4fb77	0.0050348598
14	0x3d564d53	0.052319836
15	0x3c289f02	0.010291817
16	0x3cf63bf4	0.030057885
17	0x3dc9020a	0.09814842
18	0x3a8bfb5b	0.0010679768
19	0x3d90d98b	0.07072743
20	0x3c3c2840	0.011484206
21	0x3bfb3f34	0.0076674465
22	0x3c380eeb	0.0112340255
23	0x3ccfa637	0.025347812
24	0x3d800da9	0.062526055
25	0x3c055969	0.008138993
26	0x3b81c5d9	0.003960353
27	0x3d61a4ae	0.05508869
28	0x3d152506	0.03641226
29	0x3d8976b3	0.06712093
30	0x3dc724bf	0.09723806
31	0x3d84ebfd	0.06490324
32	0x3c2091a8	0.009800352
33	0x3ca16631	0.019702049
34	0x3de406e0	0.11134124
35	0x3c852949	0.016255038
36	0x3d8f5f73	0.07000627
37	0x3cc617f9	0.024181353
38	0x3d59010e	0.05297952
39	0x3dbe982e	0.0930637
40	0x3d9320bd	0.07183979
41	0x3d2334a5	0.039845128
42	0x3c80697b	0.015675297
43	0x3d6dc18f	0.05804592
44	0x3d0e1df1	0.034696523
45	0x3c45230f	0.012032284
46	0x3ae41cd6	0.0017403613
47	0x3d230d34	0.039807513
48	0x3d5ab762	0.053397544
49	0x3dab9944	0.083788425
50	0x3a14c1e5	0.00056746445
51	0x3d681dff	0.05666923
52	0x3c330bea	0.0109281335
53	0x3c149d18	0.009070657
54	0x3b304ef9	0.002690254
55	0x3beea812	0.007283219
56	0x3d8e1236	0.06937067
57	0x3d92968f	0.07157623
58	0x3d87fbb1	0.06639803
59	0x3da6cfa2	0.081450716
60	0x3c0fd380	0.008778453
61	0x3cc7133c	0.024301164
62	0x3694bd4c	4.4327808e-06
63	0x3ddce0dd	0.10785077
64	0x3d2b61ec	0.041841432
65	0x3cf5d461	0.030008497
66	0x35f67a48	1.8364017e-06
67	0x39da08fd	0.00041586897
68	0x3d4a3e61	0.049375895
69	0x3d3c31da	0.04594598
70	0x3e0015bd	0.12508292
71	0x3c92f4dd	0.017939026
72	0x3b02b069	0.0019941574
73	0x3da4ed02	0.08053018
74	0x3b5acc96	0.0033386103
75	0x3d2c0065	0.041992564
76	0x3a08191a	0.00051917287
77	0x3dae8c30	0.085228324
78	0x3c4d4239	0.012527996
79	0x3d943efd	0.072385766
80	0x36498045	3.0025997e-06
81	0x3c0e949b	0.0087024225
82	0x3dad42ea	0.084600285
83	0x3c2d828d	0.010590208
84	0x3ab5e4e2	0.0013877416
85	0x3d9bddae	0.076106414
86	0x3d01e020	0.031707883
87	0x3d93c91c	0.07216093
88	0x3aaea774	0.0013325051
89	0x3dc3ed0d	0.09566698
90	0x3bcb7c2e	0.0062098717
91	0x3cf5bfd2	0.029998694
92	0x3b3ba194	0.0028630244
93	0x3cfdc561	0.030977907
94	0x3cf99596	0.030466836
95	0x3c46057a	0.012086267
96	0x3d394db7	0.04524013
97	0x3cac5d03	0.021040445
98	0x3ce84524	0.028353281
99	0x3dcca82f	0.09993016
100	0x3c0462fd	0.008080241
101	0x39c8c775	0.0003829558
102	0x3ce022be	0.027360316
103	0x3d042bb3	0.032268237
104	0x3c044e66	0.008075332
105	0x3c9ccabd	0.019139642
106	0x3d0db131	0.03459281
107	0x3d39a50d	0.04532342
108	0x3dd0a7b8	0.1018824
109	0x3da9992f	0.082811706
110	0x3c231e76	0.009955993
111	0x3c5fbcf1	0.013655887
112	0x3c146c21	0.009058983
113	0x3d8ebc78	0.06969541
114	0x3d482b4b	0.048869412
115	0x3bc94b0e	0.0061429804
116	0x3d9e7cf2	0.07738675
117	0x3d600a9c	0.054697618
118	0x3c781dc0	0.015143812
119	0x3de14128	0.10998756
120	0x3c824cff	0.015905855
121	0x3cec89c2	0.028874282
122	0x3dbbe4ec	0.09174523
123	0x3ca7ee71	0.02049944
124	0x3c8251ec	0.015908204
125	0x3bda95e8	0.0066707022
126	0x3dab7e11	0.08373655
127	0x3dd8980d	0.105758764

nets.0.3.weight f4 [128, 128]
0	0xbd8b3fa9	-0.067992516
1	0xbcf09ff2	-0.029373143
2	0x3c07650c	0.008263838
3	0xbd422db5	-0.04740687
4	0x3d4e68d6	0.050392948
5	0xbc8585d5	-0.016299168
6	0xbd036089	-0.032074485
7	0xbd040dd1	-0.03223974
8	0xbd78753e	-0.060658686
9	0x3d3b0c90	0.045666277
10	0xbd10d299	-0.03535709
11	0xbd233925	-0.03984942
12	0x3e1236f0	0.1427877
13	0x3da8a6ea	0.08234961
14	0x3d8b6876	0.06807034
15	0xbbc573cc	-0.006025767
16	0x3c569917	0.013098023
17	0xbce47be0	-0.0278911
18	0x3e055808	0.13021863
19	0x3d8562c9	0.065129824
20	0xbd225ea4	-0.039641038
21	0xbdd1e880	-0.10249424
22	0xbd9642bb	-0.073369466
23	0x3d9dad49	0.07699067
24	0xbd904682	-0.07044698
25	0x3c290629	0.01031641
26	0xbd4fbd6f	-0.050717767
27	0xbd4f97f9	-0.05068204
28	0xbda9a46d	-0.08283315
29	0x3d897eef	0.06713664
30	0x3da08fb3	0.078399085
31	0xbdfa5936	-0.12224047
32	0xbdb14e18	-0.08657473
33	0xbdc3ef43	-0.0956712
34	0x3d48593e	0.048913233
35	0xbd990fbf	-0.074737065
36	0x3dc33d05	0.09533123
37	0x3ca714cc	0.020395659
38	0x3c6a1896	0.014288088
39	0xbb92671e	-0.004467859
40	0xbd37c69a	-0.044867136
41	0x3ca23297	0.019799514
42	0xbcc1e0cc	-0.023666762
43	0x39d57d49	0.0004071987
44	0xbd5649fa	-0.052316643
45	0xbac3845c	-0.0014916766
46	0xbd6f295a	-0.058389045
47	0x3db372eb	0.08762153
48	0x3c55bfa5	0.01304618
49	0xbc1984ec	-0.00937007
50	0xbd1f2f85	-0.038863678
51	0xbda6b5f6	-0.08140175
52	0x3de80b86	0.11330323
53	0x3d99012b	0.07470926
54	0xbd1ec7fd	-0.038764942
55	0x3e0dda71	0.1385286
56	0xbda2e3c4	-0.07953599
57	0x3d62e0c6	0.055390142
58	0xbb9be25d	-0.004757209
59	0xbd2d018a	-0.042237796
60	0x3d0c257d	0.03421544
61	0xbc263747	-0.010145015
62	0x3c9c8481	0.019106152
63	0x3d88268f	0.066479795
64	0xbd51de07	-0.051237132
65	0x3d103468	0.03520623
66	0x3dff6709	0.12470824
67	0xbd39832b	-0.045291107
68	0x3ca87a70	0.020566195
69	0xbd1ca8ef	-0.038247045
70	0xbdc53431	-0.09629095
71	0xbd497bdc	-0.049190387
72	0x3deeb317	0.116552524
73	0xbd8842c7	-0.06653362
74	0xbda7cc48	-0.081932604
75	0xbca22182	-0.019791368
76	0x3d9a241f	0.07526421
77	0xbd9aa1c4	-0.075503856
78	0xbc1276e7	-0.008939481
79	0x3cece5e5	0.028918216
80	0x3d788417	0.060672846
81	0x3c572eba	0.013133699
82	0x3d3a3e83	0.045469772
83	0xbc7891ab	-0.015171449
84	0x3c9cfc1d	0.019163186
85	0xbd93ee22	-0.072231546
86	0xbda6e6df	-0.08149504
87	0x3dcbe02c	0.09954867
88	0x3db011d0	0.085971475
89	0x3c0ea299	0.0087057585
90	0xbd89f0cf	-0.06735384
91	0xbcd177ea	-0.025569875
92	0x3cfeafb1	0.031089636
93	0xbcb2e3b0	-0.021837085
94	0x3c2f2a2a	0.010691205
95	0xbd3568f8	-0.04428956
96	0xbd6b21e4	-0.057405367
97	0xbd308c29	-0.043102417
98	0xbd2d6883	-0.042336
99	0xbd4e65fc	-0.05039023
100	0x3cf5c736	0.030002218
101	0x3d0cd2e6	0.034380816
102	0xbcff9cc8	-0.031202689
103	0xbd9d5f0b	-0.07684144
104	0xbd1f7399	-0.038928602
105	0xbd27d614	-0.040975645
106	0xbc9cd1c5	-0.019142995
107	0xbd7e6d30	-0.062115848
108	0xbd50d021	-0.050979737
109	0x3d1e8bea	0.03870765
110	0xbdb090b8	-0.08621353
111	0xbc0c07ce	-0.008546783
112	0xbd788db0	-0.060682
113	0x3c92f363	0.017938321
114	0xbc8bb0bd	-0.017052049
115	0x3b38b74b	0.0028185423
116	0x3d9165d3	0.070994996
117	0xb9a51947	-0.00031490086
118	0x3bf6e189	0.00753421
119	0xbdb6ed6e	-0.08932005
120	0xbe0f54d2	-0.139972
121	0xbc5bbb57	-0.0134113645
122	0x3ca7ec05	0.020498285
123	0xbc94ddd5	-0.018172184
124	0xbd87e87e	-0.06636141
125	0x3caa51ae	0.020790901
126	0xbc8e908f	-0.017402915
127	0xbc8680b6	-0.016418796
128	0x3de966e4	0.11396578
129	0x3d175630	0.03694743
130	0xbd1f8880	-0.038948536
131	0x3d846bc3	0.064658664
132	0x3d9e35be	0.07725094
133	0x3cfd47b7	0.030917985
134	0xbd904058	-0.070435226
135	0xbd84e556	-0.06489055
136	0xbdaf5c05	-0.08562473
137	0x3dbb0b07	0.09132963
138	0x3caac043	0.02084363
139	0x3cbd6b2f	0.023122398
140	0x3cc0bb23	0.023526734
141	0xbc2995a0	-0.010350615
142	0x3cdb5cf3	0.02677772
143	0xbc0cd2c3	-0.008595171
144	0x3c9ac101	0.01889086
145	0x3e118466	0.14210662
146	0x3dc703fa	0.09717555
147	0xbd9ed5a4	-0.077555925
148	0xbd51af08	-0.051192313
149	0xbd84d1a9	-0.06485302
150	0x3d3fb640	0.046804667
151	0xbdd7aa84	-0.1053057
152	0x3d5b3ad0	0.053522885
153	0xbb7fdc73	-0.003904131
154	0x3cb8895e	0.02252644
155	0xbccecd7f	-0.025244473
156	0x3d0a7d96	0.033811174
157	0xbd09d5a0	-0.033650994
158	0x3d8e2399	0.069403835
159	0xbd715d94	-0.058927134
160	0xbb63003f	-0.0034637598
161	0xbcd7c6ff	-0.026340006
162	0x3dad1601	0.084514625
163	0x3d87bf50	0.06628287
164	0xbca5c594	-0.020235814
165	0xbc03c919	-0.008043551
166	0x3cc4c3d2	0.024019156
167	0xbd2dbfe8	-0.042419344
168	0xbc7f190c	-0.0155699365
169	0xbde09468	-0.10965806
170	0x3c8ffa67	0.017575456
171	0xbdd0c284	-0.10193351
172	0x3d322131	0.043488685
173	0xbcfc6c1c	-0.03081327
174	0x3d33452f	0.04376715
175	0xbdbf57ff	-0.09342956
176	0xbd99339f	-0.07480549
177	0x3d7ff0e3	0.062485587
178	0xbcb95ba7	-0.022626711
179	0xbd3f0f10	-0.046645224
180	0xbca8e782	-0.020618204
181	0xbcb056b3	-0.021525716
182	0x3d2666d2	0.0406254
183	0xbcd4a3bf	-0.025956986
184	0x3b84c311	0.004051574
185	0xbd0e236e	-0.034701757
186	0xbcc6b355	-0.024255434
187	0x3dc46188	0.09588915
188	0xbd5b3d4e	-0.05352526
189	0xbcc70b40	-0.024297357
190	0x3d3947a8	0.045234352
191	0xbc8aa769	-0.01692553
192	0x3caaa348	0.020829812
193	0x3dacd53f	0.08439111
194	0xbb88d518	-0.0041757934
195	0xbd494ca0	-0.04914534
196	0xbd21cf2e	-0.039504223
197	0x3db44975	0.08803073
198	0x3d2afc85	0.041744728
199	0xbd62098a	-0.05518488
200	0x3dbec2c4	0.09314492
201	0x3d73588c	0.059410617
202	0xbccda2fd	-0.025102133
203	0x3dc9749d	0.09836695
204	0xbc8f850a	-0.017519493
205	0xbcb11c5e	-0.021619972
206	0x3db68421	0.0891192
207	0xbce1319f	-0.027489481
208	0xbcd65973	-0.0261657
209	0x3d01ca32	0.03168697
210	0x3d5ce172	0.05392594
211	0x3c8fd7fd	0.017559046
212	0x3d0922d3	0.033480477
213	0x3d01960a	0.03163723
214	0x3c3c2b3e	0.011484919
215	0xbd643556	-0.055714928
216	0x3cee1c23	0.029066151
217	0x3c95ad7d	0.018271202
218	0xbdcedbe8	-0.101005375
219	0x3c4ca0dd	0.012489525
220	0x3b7a2e1d	0.0038174458
221	0xbdf3da50	-0.11906874
222	0x3dad3fe8	0.08459455
223	0x3d2e3150	0.042527497
224	0x3c7a2c34	0.015269328
225	0x3cc71637	0.024302585
226	0xbb96e08b	-0.0046044043
227	0xbd0492bd	-0.032366503
228	0x3e0b8a2a	0.13626924
229	0x3dc60020	0.096679926
230	0xbc9b9059	-0.018989729
231	0xbcd70752	-0.026248608
232	0x3ca9216d	0.020645821
233	0xbd16382c	-0.036674663
234	0xbdd724d9	-0.10505075
235	0x3d2bba3b	0.04192565
236	0x3dd18ff2	0.102325335
237	0x3d853e00	0.06505966
238	0x3d9a70c1	0.07541037
239	0x3d21ad49	0.0394719
240	0xbd88efd8	-0.066863716
241	0x3d21ca06	0.039499305
242	0xbc2e8253	-0.010651189
243	0xbc54ca72	-0.01298772
244	0xbdbdc614	-0.09266296
245	0x3dc6cd6a	0.097071484
246	0xbd20f4f3	-0.0392961
247	0x3da1faae	0.079091415
248	0xbcef0d74	-0.02918122
249	0x3d08b780	0.033378124
250	0xbd2645d6	-0.040593944
251	0x3d6de77b	0.058082085
252	0xbb7328ba	-0.0037103132
253	0xbc8a512e	-0.016884413
254	0x3d52c4ea	0.051457323
255	0x3db30b04	0.087423354

nets.0.3.bias f4 [128]
0	0xbd8ff541	-0.070292
1	0x3d3b48cf	0.045723733
2	0x3e1fdbd7	0.15611206
3	0xbd61ff5f	-0.05517518
4	0x3e1063cb	0.14100568
5	0xbda003eb	-0.07813247
6	0x3c9832e6	0.018578958
7	0x3aa6179d	0.0012671832
8	0xbd444359	-0.04791579
9	0x3d822ef5	0.063566126
10	0xbd9bcee7	-0.07607823
11	0x3d2cd447	0.04219463
12	0xbd041f3a	-0.032256342
13	0xbda703ea	-0.081550434
14	0xbba869e3	-0.005139576
15	0xbd2b6593	-0.041844916
16	0xbda3f49c	-0.0800564
17	0x3c0e91cd	0.008701754
18	0xbd8f56d2	-0.069989815
19	0x3cfc5d0c	0.030806087
20	0x3d284e71	0.041090433
21	0x3dddf9c7	0.10838657
22	0xbbaef4f6	-0.00533926
23	0x3e605848	0.21908677
24	0x3daf85fc	0.08570477
25	0x3e99fb5f	0.30074593
26	0x3d6ea8ba	0.05826638
27	0x3d3782fa	0.044802643
28	0x3d445a81	0.047937874
29	0x3d6f1e7d	0.058378685
30	0x3d80c8b4	0.06288281
31	0xbd9a0a14	-0.075214535
32	0xbc766934	-0.015039731
33	0xbdaee837	-0.08540385
34	0x3e51d554	0.20491534
35	0x3d6b04ff	0.05737781
36	0x3cc2cb46	0.023778569
37	0x3d0e056b	0.034673136
38	0xbd76b493	-0.060230803
39	0x3e74cebb	0.23906986
40	0xbd9bc26a	-0.07605441
41	0xbda545a6	-0.08069925
42	0xbd43826a	-0.047731794
43	0xbba73ed6	-0.005103926
44	0x3dfb91f4	0.12283698
45	0x3d58cad8	0.052927822
46	0x3dd43859	0.1036231
47	0xbd03a9a2	-0.032144196
48	0x3d1f289d	0.03885709
49	0x3ddca29e	0.10773204
50	0xbd8269c3	-0.06367829
51	0x3e0d8b73	0.13822727
52	0x3e9177f7	0.28411838
53	0x3dd679bc	0.10472438
54	0x3cfaeaba	0.030629504
55	0x3ea18bd3	0.3155199
56	0x3c97fd01	0.018553259
57	0x3ca4f5aa	0.020136673
58	0xbd895650	-0.06705916
59	0xbde493c7	-0.11160999
60	0xbe020945	-0.12698849
61	0xbd4a1dae	-0.04934471
62	0x3e315d5a	0.17320767
63	0x3dbb81fc	0.09155652
64	0xbdc76f6a	-0.097380474
65	0xbdfe0d7d	-0.124049164
66	0x3cd70243	0.026246196
67	0xbcc79824	-0.024364538
68	0xbce55ee0	-0.027999341
69	0xbdac9e40	-0.08428621
70	0xbc68aa28	-0.014200725
71	0x3d8c8fbc	0.06863353
72	0x3db5e38f	0.08881294
73	0xbdbe11e2	-0.092807546
74	0x3e1b6572	0.15175417
75	0xbe0034df	-0.12520169
76	0x3d607891	0.05480248
77	0xbe0c97a9	-0.13729729
78	0x3d8f9f49	0.07012803
79	0x3d0537bb	0.03252385
80	0xbc497dd6	-0.012298068
81	0xbd59c44d	-0.053165723
82	0xbd9a54d5	-0.07535712
83	0xbc981dfd	-0.018568987
84	0xbd37723b	-0.044786673
85	0xbdae9eea	-0.08526404
86	0x3de71be6	0.11284618
87	0x3e448e01	0.19194795
88	0x3cbed418	0.023294494
89	0xbdc7b7e7	-0.097518735
90	0xbd01cfe5	-0.031692404
91	0x3c8752f7	0.016519053
92	0xbd762131	-0.060090248
93	0x3d78b16e	0.060716085
94	0x3d2c6711	0.04209048
95	0x3e059581	0.13045312
96	0xbc23e3de	-0.010003058
97	0x3b8bff6d	0.0042723925
98	0x3e1afbce	0.15135118
99	0x3dbdeb21	0.09273363
100	0x3cc12dd5	0.023581425
101	0x3da8a8d6	0.08235328
102	0xbd871045	-0.065949
103	0x3c1a2edf	0.009410589
104	0x3d05d27c	0.032671437
105	0xbcf69b5f	-0.030103384
106	0x3d0bbe77	0.03411719
107	0x3db611ab	0.08890089
108	0xbe1b3af1	-0.15159203
109	0x3d9a7ce6	0.07543354
110	0xbdbb56ae	-0.09147392
111	0xbc86baf9	-0.016446577
112	0xbc9b067d	-0.018923992
113	0xbd546510	-0.051854193
114	0x3d4cb4ef	0.04997724
115	0x3d2d9f07	0.04238799
116	0x3d73e182	0.059541233
117	0x3d121665	0.03566589
118	0x3d227210	0.03965956
119	0xbd322e24	-0.043501034
120	0x3e09faac	0.1347453
121	0xbbaef701	-0.0053395038
122	0xbda83643	-0.082134746
123	0x3dcfd8e5	0.10148791
124	0x3e517d6a	0.20457998
125	0xbcfc7466	-0.030817222
126	0xbd36da36	-0.044641696
127	0x3d9983b5	0.07495824

nets.0.5.weight f4 [128]
0	0x3f85909b	1.0434755
1	0x3f7a2bdd	0.9772318
2	0x3f7347f7	0.95031685
3	0x3f7eccf4	0.99531484
4	0x3f81dc65	1.0145384
5	0x3f8cb110	1.0991535
6	0x3f7a7563	0.9783537
7	0x3f84ab26	1.036473
8	0x3f86d554	1.0533853
9	0x3f7b587e	0.98181903
10	0x3f6dcb63	0.9288847
11	0x3f66ed00	0.90205383
12	0x3f7b4f69	0.98168045
13	0x3f85902b	1.0434622
14	0x3f85a20f	1.0440081
15	0x3f86d4a1	1.0533639
16	0x3f912fbd	1.1342694
17	0x3f6f07e0	0.9337139
18	0x3f8eb1e3	1.1148037
19	0x3f7ac4c0	0.97956467
20	0x3f740af8	0.95329237
21	0x3f5f4a88	0.872231
22	0x3f8c6fa8	1.0971575
23	0x3f51e850	0.81995106
24	0x3f76a611	0.9634715
25	0x3f51d6c8	0.81968355
26	0x3f75751b	0.95881814
27	0x3f860361	1.0469781
28	0x3f6a5bfa	0.91546595
29	0x3f8f36a7	1.1188554
30	0x3f80b6af	1.0055751
31	0x3f790258	0.972692
32	0x3f8200d5	1.0156504
33	0x3f829643	1.0202106
34	0x3f6d2557	0.926351
35	0x3f8648e6	1.0490997
36	0x3f81ba5c	1.0134997
37	0x3f6263a7	0.8843331
38	0x3f8fa429	1.1221973
39	0x3f3e977e	0.7444991
40	0x3f7678be	0.9627799
41	0x3f7e356d	0.9930027
42	0x3f7c5e89	0.9858175
43	0x3f730ca5	0.9494117
44	0x3f82facc	1.0232787
45	0x3f81d4e5	1.0143095
46	0x3f7472a7	0.95487446
47	0x3f7e76e0	0.9940014
48	0x3f7b7100	0.982193
49	0x3f86fc24	1.0545697
50	0x3f75e5df	0.9605388
51	0x3f7028ca	0.9381224
52	0x3f746010	0.9545908
53	0x3f6ca368	0.9243684
54	0x3f6af717	0.9178328
55	0x3f67bc47	0.90521663
56	0x3f82e63e	1.0226514
57	0x3f6b1000	0.9182129
58	0x3f85ecd6	1.0462902
59	0x3f881279	1.0630637
60	0x3f84b2c0	1.036705
61	0x3f8bfb56	1.0936077
62	0x3f5b8109	0.8574377
63	0x3f5ebe3d	0.8700903
64	0x3f92082e	1.1408746
65	0x3f84fdd8	1.0389967
66	0x3f6bc269	0.9209352
67	0x3f8950ca	1.072778
68	0x3f838e74	1.0277848
69	0x3f834496	1.0255306
70	0x3f7150ba	0.94263804
71	0x3f6fcded	0.9367359
72	0x3f7b9deb	0.9828784
73	0x3f884129	1.0644885
74	0x3f7c44aa	0.98542273
75	0x3fa25e3b	1.2685007
76	0x3f7540ce	0.9580201
77	0x3f7e190a	0.99256957
78	0x3f862ab9	1.0481788
79	0x3f773e90	0.9657984
80	0x3f79aa2a	0.97525275
81	0x3f7ecdb9	0.9953266
82	0x3f6c4279	0.9228893
83	0x3f7f3aff	0.99699396
84	0x3f794b02	0.9738008
85	0x3f835f0c	1.0263381
86	0x3f60d637	0.87826866
87	0x3f6ec10d	0.9326332
88	0x3f7422e1	0.9536572
89	0x3f91629d	1.1358219
90	0x3f8823f8	1.0635977
91	0x3f870182	1.0547335
92	0x3f667150	0.9001665
93	0x3f791db7	0.97310966
94	0x3f834dba	1.0258095
95	0x3f7123ce	0.9419526
96	0x3f6b92f7	0.92021126
97	0x3f8d0e1d	1.1019932
98	0x3f7cd33b	0.9875981
99	0x3f722b8c	0.945977
100	0x3f8221e4	1.0166593
101	0x3f7dd56c	0.9915378
102	0x3f818dbb	1.0121378
103	0x3f8d7508	1.105134
104	0x3f6fd0b6	0.9367784
105	0x3f5ca4fb	0.8618924
106	0x3f7168b7	0.9430041
107	0x3f765926	0.9622978
108	0x3f832c18	1.0247831
109	0x3f7f7156	0.9978231
110	0x3f6b64b9	0.91950566
111	0x3f81d7b5	1.0143954
112	0x3f7a01ee	0.97659194
113	0x3f933a4b	1.1502165
114	0x3f70fa03	0.9413149
115	0x3f887710	1.0661335
116	0x3f61fa75	0.8827279
117	0x3f812e0c	1.0092177
118	0x3f709b8f	0.93987364
119	0x3f86cd3d	1.0531384
120	0x3f7352f4	0.9504845
121	0x3f65b037	0.8972201
122	0x3f7ee65c	0.9957025
123	0x3f81ce24	1.0141034
124	0x3f659eb4	0.89695287
125	0x3f80ea4b	1.00715
126	0x3f6e22c5	0.93021804
127	0x3f75d42c	0.96026874

nets.0.5.bias f4 [128]
0	0xbd1969a7	-0.037454274
1	0x3de5ffcb	0.11230429
2	0xbc34ec8e	-0.011042727
3	0xbd9677db	-0.07347079
4	0x3e0565eb	0.1302716
5	0x3d2877ef	0.041130003
6	0x3cde7e35	0.02715979
7	0x3cbc188d	0.022960925
8	0xbc989214	-0.018624343
9	0x3d71ba40	0.059015512
10	0xbd849f85	-0.064757384
11	0xbcfe0df1	-0.031012507
12	0x3e21a68a	0.15786186
13	0x3bf28110	0.0074006394
14	0x3d0f1f51	0.034941975
15	0x3e2ecea8	0.1707102
16	0x3dd53106	0.10409741
17	0x3d2fb487	0.042896774
18	0x3cc7d6e7	0.024394466
19	0x3dec0f37	0.115263395
20	0x3df277ff	0.11839294
21	0xbcfd7ff5	-0.030944804
22	0x3e4ce894	0.20010597
23	0x3db305e6	0.087413594
24	0x3de0d178	0.10977453
25	0x3ca2f2d9	0.01989119
26	0xbc3f7c6b	-0.011687378
27	0xbe09b640	-0.13448429
28	0x3bb19c96	0.005420278
29	0x3d8546d7	0.06507652
30	0xbcf9da89	-0.030499713
31	0xbc94effd	-0.018180842
32	0xbba8a614	-0.005146751
33	0xbdb30d91	-0.08742822
34	0xbd02cad9	-0.03193173
35	0x3d1a491f	0.03766739
36	0xbb751d93	-0.003740166
37	0xbdf69ea7	-0.12041979
38	0xbe3b15e3	-0.18270068
39	0xbd44b1b3	-0.04802103
40	0x3d4ea528	0.050450474
41	0x3db5b023	0.08871486
42	0x3df68978	0.12037939
43	0x3d700773	0.058600854
44	0x3dcd868f	0.10035431
45	0x3e0451cb	0.12921827
46	0x3d813d00	0.06310463
47	0x3d27b1de	0.04094111
48	0x3dbc0078	0.09179777
49	0x3d289bf4	0.041164353
50	0x3deccf96	0.115630314
51	0x3b4473a8	0.0029976163
52	0x3d3d22ab	0.04617564
53	0xbd404f75	-0.046950776
54	0x3e5efe94	0.21776801
55	0xbe25b215	-0.16181214
56	0x3dcae251	0.09906448
57	0xbe13e84a	-0.1444408
58	0x3dbf7c80	0.09349918
59	0xbdacd8e9	-0.0843981
60	0xbd97446f	-0.073860995
61	0x3d573f94	0.052550867
62	0xba16fad2	-0.0005759421
63	0xbcf60a83	-0.03003431
64	0x3d85973b	0.065229855
65	0x3dee195d	0.116259314
66	0xbd884d6f	-0.06655394
67	0x3e2260b1	0.15857197
68	0x3d6cb815	0.05779274
69	0x3ccc75da	0.02495854
70	0xbd903fe7	-0.070434384
71	0x3ddf944d	0.10916958
72	0x3c93fe03	0.018065458
73	0xbd444cd6	-0.04792484
74	0x3dfbac6f	0.122887485
75	0x3e562924	0.20914131
76	0xbc418cf7	-0.011813394
77	0xbd9905cb	-0.07471808
78	0x3e0a2665	0.13491209
79	0x3d2d439e	0.042300813
80	0x3d6b2003	0.057403576
81	0x3dc757bc	0.09733531
82	0xbd4c5de7	-0.04989424
83	0x3e134f26	0.14385661
84	0x3de13675	0.10996715
85	0x3dae6a16	0.08516328
86	0xbd9a4b54	-0.07533899
87	0xbd398d28	-0.045300633
88	0x3cf4f02e	0.029899683
89	0x3e1f7053	0.15570192
90	0x3d75dacf	0.060023125
91	0xbdc25104	-0.09488109
92	0xbd8a1e2a	-0.067440346
93	0x3de76a21	0.11299539
94	0x3d96d074	0.07363978
95	0x3d20fac5	0.039301652
96	0x3dc1b114	0.09457603
97	0x3d429d0f	0.047513064
98	0x3e5a666c	0.21328133
99	0xbd963fe6	-0.073364064
100	0x3e18c105	0.14917381
101	0x3d6c4844	0.057686105
102	0xbd596c09	-0.053081546
103	0x3e14967d	0.14510532
104	0x3c542f61	0.012950749
105	0xbe260a2c	-0.16214818
106	0xbd236f23	-0.03990091
107	0x3c57f808	0.013181694
108	0xbce6e67e	-0.02818608
109	0x3d194505	0.037419338
110	0x3e1c446f	0.1526048
111	0x3d094ffb	0.03352354
112	0xbdaef503	-0.08542826
113	0x3cde9d93	0.027174747
114	0x3e7c3c9f	0.246325
115	0xbd9fd21f	-0.07803749
116	0x3d90a781	0.07063199
117	0xbd05d981	-0.03267813
118	0x3df170b9	0.11789078
119	0x3d9a7530	0.07541883
120	0x3d5b34cb	0.053517144
121	0x3e0a722f	0.1352012
122	0x3d8f4b42	0.06996776
123	0x3e0fd56c	0.14046258
124	0xbdd71a93	-0.105031155
125	0x3deb2fff	0.11483764
126	0x3dc33902	0.09532358
127	0x3ce46327	0.02787931

nets.0.5.running_mean f4 [128]
0	0x3ebc6788	0.36797738
1	0x3e3865a5	0.18007524
2	0x3f08a220	0.53372383
3	0x3ece6bf2	0.4031673
4	0x3f132f40	0.5749397
5	0x3e42b5b1	0.19014622
6	0x3eb41c46	0.3517782
7	0x3e2a7895	0.16647561
8	0x3e04c286	0.1296483
9	0x3f035880	0.51306915
10	0x3eabd041	0.33557323
11	0x3f0a9e01	0.54147345
12	0x3e96ea18	0.29475474
13	0x3ec3e910	0.3826375
14	0x3ebacfb5	0.36486593
15	0x3f18c4a0	0.59675026
16	0x3e3cd2ee	0.18439838
17	0x3eac27d0	0.33624125
18	0x3e723bf0	0.23655677
19	0x3edd0817	0.43170235
20	0x3eb744c1	0.35794643
21	0x3edfef77	0.43737385
22	0x3e9cf494	0.30655348
23	0x3efecbfc	0.49765003
24	0x3e912140	0.2834568
25	0x3ee4d810	0.44696093
26	0x3ecb5aa1	0.39717582
27	0x3ec8ee98	0.39244533
28	0x3ea10acf	0.3145356
29	0x3ec1116d	0.37708607
30	0x3ef66651	0.48124936
31	0x3eb4836c	0.35256517
32	0x3e8d0387	0.27541754
33	0x3e9b6fd9	0.3035877
34	0x3ee38e59	0.4444454
35	0x3edd4cb2	0.43222576
36	0x3edcbb49	0.43111637
37	0x3ec35faf	0.38158938
38	0x3e85a591	0.2610288
39	0x3ef28c86	0.47372836
40	0x3ef300b3	0.4746147
41	0x3e8736b3	0.2640892
42	0x3eaf0b0c	0.34188116
43	0x3f0a695e	0.5406703
44	0x3f0902b0	0.53519726
45	0x3ecd3cda	0.4008549
46	0x3f1cbe29	0.6122766
47	0x3e67b7dc	0.2262873
48	0x3ee3a183	0.4445916
49	0x3ec3f7c0	0.38274956
50	0x3e90b0ff	0.28260037
51	0x3eb21346	0.3478033
52	0x3efd6db1	0.4949775
53	0x3ee29f71	0.4426227
54	0x3ec303b7	0.38088772
55	0x3f079871	0.5296698
56	0x3ec062b3	0.37575302
57	0x3f094248	0.5361676
58	0x3efe02b8	0.4961145
59	0x3df73980	0.12071514
60	0x3e7c8a13	0.24662046
61	0x3e929cbf	0.28635213
62	0x3ea57f1f	0.32323548
63	0x3ec7576e	0.3893389
64	0x3e6fa896	0.23404154
65	0x3efa9021	0.48938087
66	0x3ee74c69	0.45175484
67	0x3ebe886c	0.37213457
68	0x3e95e945	0.29279533
69	0x3e8a71cb	0.27039942
70	0x3eafd63a	0.3434313
71	0x3e5f82c0	0.21827221
72	0x3ef397b1	0.4757667
73	0x3e5d67ea	0.21621671
74	0x3f00efe3	0.5036604
75	0x3e56b38e	0.20966932
76	0x3f0f0b64	0.55876756
77	0x3e8097a2	0.25115687
78	0x3f0f6cda	0.5602547
79	0x3eca7ccc	0.39548337
80	0x3e8f7a02	0.28022772
81	0x3e7fe8d5	0.24991162
82	0x3e9e98df	0.30976006
83	0x3e5d438f	0.21607803
84	0x3ed8fe91	0.4238172
85	0x3f1146f5	0.56748897
86	0x3ec28b29	0.37996796
87	0x3ec09813	0.37616023
88	0x3ef1e17c	0.47242343
89	0x3e772811	0.24136378
90	0x3e6ce8e1	0.23135711
91	0x3eae4b47	0.34041807
92	0x3f0298cd	0.51014405
93	0x3e9e46a1	0.3091326
94	0x3ec62dfb	0.38706955
95	0x3ea18662	0.31547838
96	0x3e8d89b5	0.27644125
97	0x3e8d1819	0.27557448
98	0x3ee4e2b4	0.4470421
99	0x3ea7f434	0.328035
100	0x3ee0ca8d	0.43904534
101	0x3f01e658	0.507421
102	0x3e4f94f9	0.20271672
103	0x3e880b39	0.26571062
104	0x3ec37ba6	0.38180274
105	0x3e83b824	0.25726426
106	0x3eab7130	0.33484793
107	0x3f10e9fb	0.56607026
108	0x3e417889	0.18893637
109	0x3e80cdc5	0.2515699
110	0x3eb29932	0.34882504
111	0x3ecb79c5	0.3974134
112	0x3ee56358	0.44802356
113	0x3e6e5edc	0.23278373
114	0x3eb72074	0.35766947
115	0x3e9c0e3f	0.3047962
116	0x3f071e1d	0.52780324
117	0x3f5076f0	0.81431484
118	0x3ed97584	0.4247247
119	0x3e8d7644	0.27629292
120	0x3ec3ca18	0.38240123
121	0x3eb51cb4	0.3537346
122	0x3e30eb6f	0.17277311
123	0x3e9c243f	0.30496404
124	0x3f239053	0.63892096
125	0x3eea6ae2	0.4578467
126	0x3ea6a481	0.32547382
127	0x3ec9a7ae	0.39385742

nets.0.5.running_var f4 [128]
0	0x3f35fca3	0.7108862
1	0x3e521c7e	0.20518681
2	0x3f459b4c	0.7719009
3	0x3ec6bfc9	0.38818195
4	0x3f4916b0	0.78550243
5	0x3eedf8a5	0.46478763
6	0x3ebe7886	0.37201327
7	0x3e3febc4	0.18742281
8	0x3e4ab8a8	0.19797003
9	0x3efecd24	0.49765885
10	0x3ea3e806	0.32012957
11	0x3f2e0d1d	0.6798876
12	0x3edc73ef	0.430572
13	0x3f20c095	0.62793857
14	0x3f9a0d3d	1.203529
15	0x3f3fa037	0.74853843
16	0x3f10a6ca	0.565045
17	0x3e4974e7	0.19673501
18	0x3f12724e	0.57205665
19	0x3ebde620	0.37089634
20	0x3efd160f	0.49430892
21	0x3eda1279	0.4259222
22	0x3ea976f4	0.33098567
23	0x3eb26c18	0.34848094
24	0x3e9e7b1d	0.30953303
25	0x3e330349	0.17481722
26	0x3e9a216f	0.30103633
27	0x3f725504	0.94660974
28	0x3eafad27	0.34311792
29	0x3f1123dc	0.5669534
30	0x3e93183e	0.28729433
31	0x3ea31108	0.3184893
32	0x3eefc142	0.46827132
33	0x3f319fac	0.69384265
34	0x3e90977c	0.28240573
35	0x3f78ceda	0.9719063
36	0x3effe127	0.49976465
37	0x3ec1f11a	0.37879258
38	0x3f4ee351	0.8081561
39	0x3ecef9bc	0.40424907
40	0x3f35e3fb	0.71050996
41	0x3e8325d8	0.2561481
42	0x3e6be673	0.23037128
43	0x3f076403	0.5288698
44	0x3ef068ee	0.46955055
45	0x3ed2feba	0.41209966
46	0x3f1dc33f	0.61626047
47	0x3e411b2e	0.18858024
48	0x3ee0385d	0.43793002
49	0x3f1ee5ea	0.6206957
50	0x3eb91982	0.36152273
51	0x3ec81893	0.3908125
52	0x3e84227c	0.2580756
53	0x3ec04000	0.37548828
54	0x3ea99541	0.33121684
55	0x3e952162	0.29127032
56	0x3e9dd58e	0.30826992
57	0x3ef58ae5	0.4795753
58	0x3f06064b	0.5235335
59	0x3dfbbc0f	0.12291729
60	0x3f401d64	0.75044847
61	0x3ec832bf	0.39101216
62	0x3e071530	0.13191676
63	0x3ec68f77	0.3878133
64	0x3efa87db	0.48931774
65	0x3f0e713b	0.55641526
66	0x3f0a1531	0.53938586
67	0x3e9816e4	0.29704964
68	0x3ea6be55	0.32567087
69	0x3ea76b8c	0.3269924
70	0x3ea6fd07	0.3261492
71	0x3e1ae79b	0.15127413
72	0x3ecfa2f9	0.40554026
73	0x3eba6819	0.36407545
74	0x3f074364	0.52837205
75	0x3f3cb7b5	0.73717815
76	0x3f38b72d	0.72154504
77	0x3e60686f	0.21914838
78	0x3f468e6a	0.77561057
79	0x3f07771e	0.52916133
80	0x3ecccc89	0.39999798
81	0x3e90f8b9	0.2831476
82	0x3ec4af0d	0.38414803
83	0x3df8e61e	0.12153266
84	0x3f37ae20	0.7175007
85	0x3f5c9320	0.86161995
86	0x3e3e3717	0.18575703
87	0x3e96a0ff	0.29419705
88	0x3ef99e26	0.4875347
89	0x3ee104ae	0.43948883
90	0x3f269eb1	0.65085894
91	0x3f273086	0.65308416
92	0x3f013d6b	0.5048434
93	0x3e7add3b	0.24498455
94	0x3f1250fa	0.5715481
95	0x3e1b78c1	0.15182783
96	0x3e5bbf13	0.21459608
97	0x3f1513e1	0.5823346
98	0x3f0430af	0.51636785
99	0x3e9caf07	0.30602285
100	0x3ed0d7e9	0.40789726
101	0x3f01c8d0	0.5069704
102	0x3f191b3f	0.598072
103	0x3f63e9f7	0.8902888
104	0x3ed10929	0.408273
105	0x3e434544	0.19069391
106	0x3ef8857b	0.48539338
107	0x3f28ed2b	0.6598689
108	0x3e9fc23a	0.3120287
109	0x3ee9db70	0.4567523
110	0x3eb88dfc	0.36045825
111	0x3f124b2b	0.5714595
112	0x3f3cbddd	0.7372721
113	0x3f1d7865	0.6151183
114	0x3eb6731b	0.35634694
115	0x3f164cc6	0.58710897
116	0x3ed9ff6c	0.42577684
117	0x3f950b98	1.1644163
118	0x3f25acff	0.64717096
119	0x3edd11f8	0.43177772
120	0x3f3ab6aa	0.72934973
121	0x3f015b21	0.50529677
122	0x3eaaec21	0.33383277
123	0x3eb833c3	0.3597699
124	0x3eff80e8	0.49903035
125	0x3f43b655	0.7645009
126	0x3e8083a2	0.25100428
127	0x3f1fb7b1	0.62389666
